ir_version: 6
producer_name: "pytorch"
producer_version: "1.9"
model_version: 0
graph {
  name: "torch-jit-export"
  node {
    input: "src"
    output: "384"
    name: "Shape_0"
    op_type: "Shape"
  }
  node {
    output: "385"
    name: "Constant_1"
    op_type: "Constant"
    attribute {
      name: "value"
      t {
        data_type: 7
      }
      type: TENSOR
    }
  }
  node {
    input: "384"
    input: "385"
    output: "386"
    name: "Gather_2"
    op_type: "Gather"
    attribute {
      name: "axis"
      i: 0
      type: INT
    }
  }
  node {
    input: "386"
    output: "387"
    name: "Cast_3"
    op_type: "Cast"
    attribute {
      name: "to"
      i: 1
      type: INT
    }
  }
  node {
    output: "388"
    name: "Constant_4"
    op_type: "Constant"
    attribute {
      name: "value"
      t {
        data_type: 1
      }
      type: TENSOR
    }
  }
  node {
    input: "387"
    input: "388"
    output: "389"
    name: "Mul_5"
    op_type: "Mul"
  }
  node {
    input: "389"
    output: "390"
    name: "Cast_6"
    op_type: "Cast"
    attribute {
      name: "to"
      i: 1
      type: INT
    }
  }
  node {
    input: "390"
    output: "391"
    name: "Floor_7"
    op_type: "Floor"
  }
  node {
    input: "src"
    output: "392"
    name: "Shape_8"
    op_type: "Shape"
  }
  node {
    output: "393"
    name: "Constant_9"
    op_type: "Constant"
    attribute {
      name: "value"
      t {
        data_type: 7
      }
      type: TENSOR
    }
  }
  node {
    input: "392"
    input: "393"
    output: "394"
    name: "Gather_10"
    op_type: "Gather"
    attribute {
      name: "axis"
      i: 0
      type: INT
    }
  }
  node {
    input: "394"
    output: "395"
    name: "Cast_11"
    op_type: "Cast"
    attribute {
      name: "to"
      i: 1
      type: INT
    }
  }
  node {
    output: "396"
    name: "Constant_12"
    op_type: "Constant"
    attribute {
      name: "value"
      t {
        data_type: 1
      }
      type: TENSOR
    }
  }
  node {
    input: "395"
    input: "396"
    output: "397"
    name: "Mul_13"
    op_type: "Mul"
  }
  node {
    input: "397"
    output: "398"
    name: "Cast_14"
    op_type: "Cast"
    attribute {
      name: "to"
      i: 1
      type: INT
    }
  }
  node {
    input: "398"
    output: "399"
    name: "Floor_15"
    op_type: "Floor"
  }
  node {
    input: "391"
    output: "400"
    name: "Unsqueeze_16"
    op_type: "Unsqueeze"
    attribute {
      name: "axes"
      ints: 0
      type: INTS
    }
  }
  node {
    input: "399"
    output: "401"
    name: "Unsqueeze_17"
    op_type: "Unsqueeze"
    attribute {
      name: "axes"
      ints: 0
      type: INTS
    }
  }
  node {
    input: "400"
    input: "401"
    output: "402"
    name: "Concat_18"
    op_type: "Concat"
    attribute {
      name: "axis"
      i: 0
      type: INT
    }
  }
  node {
    input: "src"
    output: "403"
    name: "Shape_19"
    op_type: "Shape"
  }
  node {
    output: "404"
    name: "Constant_20"
    op_type: "Constant"
    attribute {
      name: "value"
      t {
        dims: 1
        data_type: 7
      }
      type: TENSOR
    }
  }
  node {
    output: "405"
    name: "Constant_21"
    op_type: "Constant"
    attribute {
      name: "value"
      t {
        dims: 1
        data_type: 7
      }
      type: TENSOR
    }
  }
  node {
    output: "406"
    name: "Constant_22"
    op_type: "Constant"
    attribute {
      name: "value"
      t {
        dims: 1
        data_type: 7
      }
      type: TENSOR
    }
  }
  node {
    input: "403"
    input: "405"
    input: "406"
    input: "404"
    output: "407"
    name: "Slice_23"
    op_type: "Slice"
  }
  node {
    input: "402"
    output: "408"
    name: "Cast_24"
    op_type: "Cast"
    attribute {
      name: "to"
      i: 7
      type: INT
    }
  }
  node {
    input: "407"
    input: "408"
    output: "409"
    name: "Concat_25"
    op_type: "Concat"
    attribute {
      name: "axis"
      i: 0
      type: INT
    }
  }
  node {
    output: "410"
    name: "Constant_26"
    op_type: "Constant"
    attribute {
      name: "value"
      t {
        dims: 0
        data_type: 1
      }
      type: TENSOR
    }
  }
  node {
    output: "411"
    name: "Constant_27"
    op_type: "Constant"
    attribute {
      name: "value"
      t {
        dims: 0
        data_type: 1
      }
      type: TENSOR
    }
  }
  node {
    input: "src"
    input: "410"
    input: "411"
    input: "409"
    output: "412"
    name: "Resize_28"
    op_type: "Resize"
    attribute {
      name: "coordinate_transformation_mode"
      s: "pytorch_half_pixel"
      type: STRING
    }
    attribute {
      name: "cubic_coeff_a"
      f: -0.75
      type: FLOAT
    }
    attribute {
      name: "mode"
      s: "linear"
      type: STRING
    }
    attribute {
      name: "nearest_mode"
      s: "floor"
      type: STRING
    }
  }
  node {
    input: "bgr"
    output: "413"
    name: "Shape_29"
    op_type: "Shape"
  }
  node {
    output: "414"
    name: "Constant_30"
    op_type: "Constant"
    attribute {
      name: "value"
      t {
        data_type: 7
      }
      type: TENSOR
    }
  }
  node {
    input: "413"
    input: "414"
    output: "415"
    name: "Gather_31"
    op_type: "Gather"
    attribute {
      name: "axis"
      i: 0
      type: INT
    }
  }
  node {
    input: "415"
    output: "416"
    name: "Cast_32"
    op_type: "Cast"
    attribute {
      name: "to"
      i: 1
      type: INT
    }
  }
  node {
    output: "417"
    name: "Constant_33"
    op_type: "Constant"
    attribute {
      name: "value"
      t {
        data_type: 1
      }
      type: TENSOR
    }
  }
  node {
    input: "416"
    input: "417"
    output: "418"
    name: "Mul_34"
    op_type: "Mul"
  }
  node {
    input: "418"
    output: "419"
    name: "Cast_35"
    op_type: "Cast"
    attribute {
      name: "to"
      i: 1
      type: INT
    }
  }
  node {
    input: "419"
    output: "420"
    name: "Floor_36"
    op_type: "Floor"
  }
  node {
    input: "bgr"
    output: "421"
    name: "Shape_37"
    op_type: "Shape"
  }
  node {
    output: "422"
    name: "Constant_38"
    op_type: "Constant"
    attribute {
      name: "value"
      t {
        data_type: 7
      }
      type: TENSOR
    }
  }
  node {
    input: "421"
    input: "422"
    output: "423"
    name: "Gather_39"
    op_type: "Gather"
    attribute {
      name: "axis"
      i: 0
      type: INT
    }
  }
  node {
    input: "423"
    output: "424"
    name: "Cast_40"
    op_type: "Cast"
    attribute {
      name: "to"
      i: 1
      type: INT
    }
  }
  node {
    output: "425"
    name: "Constant_41"
    op_type: "Constant"
    attribute {
      name: "value"
      t {
        data_type: 1
      }
      type: TENSOR
    }
  }
  node {
    input: "424"
    input: "425"
    output: "426"
    name: "Mul_42"
    op_type: "Mul"
  }
  node {
    input: "426"
    output: "427"
    name: "Cast_43"
    op_type: "Cast"
    attribute {
      name: "to"
      i: 1
      type: INT
    }
  }
  node {
    input: "427"
    output: "428"
    name: "Floor_44"
    op_type: "Floor"
  }
  node {
    input: "420"
    output: "429"
    name: "Unsqueeze_45"
    op_type: "Unsqueeze"
    attribute {
      name: "axes"
      ints: 0
      type: INTS
    }
  }
  node {
    input: "428"
    output: "430"
    name: "Unsqueeze_46"
    op_type: "Unsqueeze"
    attribute {
      name: "axes"
      ints: 0
      type: INTS
    }
  }
  node {
    input: "429"
    input: "430"
    output: "431"
    name: "Concat_47"
    op_type: "Concat"
    attribute {
      name: "axis"
      i: 0
      type: INT
    }
  }
  node {
    input: "bgr"
    output: "432"
    name: "Shape_48"
    op_type: "Shape"
  }
  node {
    output: "433"
    name: "Constant_49"
    op_type: "Constant"
    attribute {
      name: "value"
      t {
        dims: 1
        data_type: 7
      }
      type: TENSOR
    }
  }
  node {
    output: "434"
    name: "Constant_50"
    op_type: "Constant"
    attribute {
      name: "value"
      t {
        dims: 1
        data_type: 7
      }
      type: TENSOR
    }
  }
  node {
    output: "435"
    name: "Constant_51"
    op_type: "Constant"
    attribute {
      name: "value"
      t {
        dims: 1
        data_type: 7
      }
      type: TENSOR
    }
  }
  node {
    input: "432"
    input: "434"
    input: "435"
    input: "433"
    output: "436"
    name: "Slice_52"
    op_type: "Slice"
  }
  node {
    input: "431"
    output: "437"
    name: "Cast_53"
    op_type: "Cast"
    attribute {
      name: "to"
      i: 7
      type: INT
    }
  }
  node {
    input: "436"
    input: "437"
    output: "438"
    name: "Concat_54"
    op_type: "Concat"
    attribute {
      name: "axis"
      i: 0
      type: INT
    }
  }
  node {
    output: "439"
    name: "Constant_55"
    op_type: "Constant"
    attribute {
      name: "value"
      t {
        dims: 0
        data_type: 1
      }
      type: TENSOR
    }
  }
  node {
    output: "440"
    name: "Constant_56"
    op_type: "Constant"
    attribute {
      name: "value"
      t {
        dims: 0
        data_type: 1
      }
      type: TENSOR
    }
  }
  node {
    input: "bgr"
    input: "439"
    input: "440"
    input: "438"
    output: "441"
    name: "Resize_57"
    op_type: "Resize"
    attribute {
      name: "coordinate_transformation_mode"
      s: "pytorch_half_pixel"
      type: STRING
    }
    attribute {
      name: "cubic_coeff_a"
      f: -0.75
      type: FLOAT
    }
    attribute {
      name: "mode"
      s: "linear"
      type: STRING
    }
    attribute {
      name: "nearest_mode"
      s: "floor"
      type: STRING
    }
  }
  node {
    input: "412"
    input: "441"
    output: "442"
    name: "Concat_58"
    op_type: "Concat"
    attribute {
      name: "axis"
      i: 1
      type: INT
    }
  }
  node {
    input: "442"
    input: "1445"
    input: "1446"
    output: "1444"
    name: "Conv_59"
    op_type: "Conv"
    attribute {
      name: "dilations"
      ints: 1
      ints: 1
      type: INTS
    }
    attribute {
      name: "group"
      i: 1
      type: INT
    }
    attribute {
      name: "kernel_shape"
      ints: 3
      ints: 3
      type: INTS
    }
    attribute {
      name: "pads"
      ints: 1
      ints: 1
      ints: 1
      ints: 1
      type: INTS
    }
    attribute {
      name: "strides"
      ints: 2
      ints: 2
      type: INTS
    }
  }
  node {
    output: "445"
    name: "Constant_60"
    op_type: "Constant"
    attribute {
      name: "value"
      t {
        data_type: 1
      }
      type: TENSOR
    }
  }
  node {
    output: "446"
    name: "Constant_61"
    op_type: "Constant"
    attribute {
      name: "value"
      t {
        data_type: 1
      }
      type: TENSOR
    }
  }
  node {
    input: "1444"
    input: "445"
    input: "446"
    output: "447"
    name: "Clip_62"
    op_type: "Clip"
  }
  node {
    input: "447"
    input: "1448"
    input: "1449"
    output: "1447"
    name: "Conv_63"
    op_type: "Conv"
    attribute {
      name: "dilations"
      ints: 1
      ints: 1
      type: INTS
    }
    attribute {
      name: "group"
      i: 32
      type: INT
    }
    attribute {
      name: "kernel_shape"
      ints: 3
      ints: 3
      type: INTS
    }
    attribute {
      name: "pads"
      ints: 1
      ints: 1
      ints: 1
      ints: 1
      type: INTS
    }
    attribute {
      name: "strides"
      ints: 1
      ints: 1
      type: INTS
    }
  }
  node {
    output: "450"
    name: "Constant_64"
    op_type: "Constant"
    attribute {
      name: "value"
      t {
        data_type: 1
      }
      type: TENSOR
    }
  }
  node {
    output: "451"
    name: "Constant_65"
    op_type: "Constant"
    attribute {
      name: "value"
      t {
        data_type: 1
      }
      type: TENSOR
    }
  }
  node {
    input: "1447"
    input: "450"
    input: "451"
    output: "452"
    name: "Clip_66"
    op_type: "Clip"
  }
  node {
    input: "452"
    input: "1451"
    input: "1452"
    output: "1450"
    name: "Conv_67"
    op_type: "Conv"
    attribute {
      name: "dilations"
      ints: 1
      ints: 1
      type: INTS
    }
    attribute {
      name: "group"
      i: 1
      type: INT
    }
    attribute {
      name: "kernel_shape"
      ints: 1
      ints: 1
      type: INTS
    }
    attribute {
      name: "pads"
      ints: 0
      ints: 0
      ints: 0
      ints: 0
      type: INTS
    }
    attribute {
      name: "strides"
      ints: 1
      ints: 1
      type: INTS
    }
  }
  node {
    input: "1450"
    input: "1454"
    input: "1455"
    output: "1453"
    name: "Conv_68"
    op_type: "Conv"
    attribute {
      name: "dilations"
      ints: 1
      ints: 1
      type: INTS
    }
    attribute {
      name: "group"
      i: 1
      type: INT
    }
    attribute {
      name: "kernel_shape"
      ints: 1
      ints: 1
      type: INTS
    }
    attribute {
      name: "pads"
      ints: 0
      ints: 0
      ints: 0
      ints: 0
      type: INTS
    }
    attribute {
      name: "strides"
      ints: 1
      ints: 1
      type: INTS
    }
  }
  node {
    output: "457"
    name: "Constant_69"
    op_type: "Constant"
    attribute {
      name: "value"
      t {
        data_type: 1
      }
      type: TENSOR
    }
  }
  node {
    output: "458"
    name: "Constant_70"
    op_type: "Constant"
    attribute {
      name: "value"
      t {
        data_type: 1
      }
      type: TENSOR
    }
  }
  node {
    input: "1453"
    input: "457"
    input: "458"
    output: "459"
    name: "Clip_71"
    op_type: "Clip"
  }
  node {
    input: "459"
    input: "1457"
    input: "1458"
    output: "1456"
    name: "Conv_72"
    op_type: "Conv"
    attribute {
      name: "dilations"
      ints: 1
      ints: 1
      type: INTS
    }
    attribute {
      name: "group"
      i: 96
      type: INT
    }
    attribute {
      name: "kernel_shape"
      ints: 3
      ints: 3
      type: INTS
    }
    attribute {
      name: "pads"
      ints: 1
      ints: 1
      ints: 1
      ints: 1
      type: INTS
    }
    attribute {
      name: "strides"
      ints: 2
      ints: 2
      type: INTS
    }
  }
  node {
    output: "462"
    name: "Constant_73"
    op_type: "Constant"
    attribute {
      name: "value"
      t {
        data_type: 1
      }
      type: TENSOR
    }
  }
  node {
    output: "463"
    name: "Constant_74"
    op_type: "Constant"
    attribute {
      name: "value"
      t {
        data_type: 1
      }
      type: TENSOR
    }
  }
  node {
    input: "1456"
    input: "462"
    input: "463"
    output: "464"
    name: "Clip_75"
    op_type: "Clip"
  }
  node {
    input: "464"
    input: "1460"
    input: "1461"
    output: "1459"
    name: "Conv_76"
    op_type: "Conv"
    attribute {
      name: "dilations"
      ints: 1
      ints: 1
      type: INTS
    }
    attribute {
      name: "group"
      i: 1
      type: INT
    }
    attribute {
      name: "kernel_shape"
      ints: 1
      ints: 1
      type: INTS
    }
    attribute {
      name: "pads"
      ints: 0
      ints: 0
      ints: 0
      ints: 0
      type: INTS
    }
    attribute {
      name: "strides"
      ints: 1
      ints: 1
      type: INTS
    }
  }
  node {
    input: "1459"
    input: "1463"
    input: "1464"
    output: "1462"
    name: "Conv_77"
    op_type: "Conv"
    attribute {
      name: "dilations"
      ints: 1
      ints: 1
      type: INTS
    }
    attribute {
      name: "group"
      i: 1
      type: INT
    }
    attribute {
      name: "kernel_shape"
      ints: 1
      ints: 1
      type: INTS
    }
    attribute {
      name: "pads"
      ints: 0
      ints: 0
      ints: 0
      ints: 0
      type: INTS
    }
    attribute {
      name: "strides"
      ints: 1
      ints: 1
      type: INTS
    }
  }
  node {
    output: "469"
    name: "Constant_78"
    op_type: "Constant"
    attribute {
      name: "value"
      t {
        data_type: 1
      }
      type: TENSOR
    }
  }
  node {
    output: "470"
    name: "Constant_79"
    op_type: "Constant"
    attribute {
      name: "value"
      t {
        data_type: 1
      }
      type: TENSOR
    }
  }
  node {
    input: "1462"
    input: "469"
    input: "470"
    output: "471"
    name: "Clip_80"
    op_type: "Clip"
  }
  node {
    input: "471"
    input: "1466"
    input: "1467"
    output: "1465"
    name: "Conv_81"
    op_type: "Conv"
    attribute {
      name: "dilations"
      ints: 1
      ints: 1
      type: INTS
    }
    attribute {
      name: "group"
      i: 144
      type: INT
    }
    attribute {
      name: "kernel_shape"
      ints: 3
      ints: 3
      type: INTS
    }
    attribute {
      name: "pads"
      ints: 1
      ints: 1
      ints: 1
      ints: 1
      type: INTS
    }
    attribute {
      name: "strides"
      ints: 1
      ints: 1
      type: INTS
    }
  }
  node {
    output: "474"
    name: "Constant_82"
    op_type: "Constant"
    attribute {
      name: "value"
      t {
        data_type: 1
      }
      type: TENSOR
    }
  }
  node {
    output: "475"
    name: "Constant_83"
    op_type: "Constant"
    attribute {
      name: "value"
      t {
        data_type: 1
      }
      type: TENSOR
    }
  }
  node {
    input: "1465"
    input: "474"
    input: "475"
    output: "476"
    name: "Clip_84"
    op_type: "Clip"
  }
  node {
    input: "476"
    input: "1469"
    input: "1470"
    output: "1468"
    name: "Conv_85"
    op_type: "Conv"
    attribute {
      name: "dilations"
      ints: 1
      ints: 1
      type: INTS
    }
    attribute {
      name: "group"
      i: 1
      type: INT
    }
    attribute {
      name: "kernel_shape"
      ints: 1
      ints: 1
      type: INTS
    }
    attribute {
      name: "pads"
      ints: 0
      ints: 0
      ints: 0
      ints: 0
      type: INTS
    }
    attribute {
      name: "strides"
      ints: 1
      ints: 1
      type: INTS
    }
  }
  node {
    input: "1459"
    input: "1468"
    output: "479"
    name: "Add_86"
    op_type: "Add"
  }
  node {
    input: "479"
    input: "1472"
    input: "1473"
    output: "1471"
    name: "Conv_87"
    op_type: "Conv"
    attribute {
      name: "dilations"
      ints: 1
      ints: 1
      type: INTS
    }
    attribute {
      name: "group"
      i: 1
      type: INT
    }
    attribute {
      name: "kernel_shape"
      ints: 1
      ints: 1
      type: INTS
    }
    attribute {
      name: "pads"
      ints: 0
      ints: 0
      ints: 0
      ints: 0
      type: INTS
    }
    attribute {
      name: "strides"
      ints: 1
      ints: 1
      type: INTS
    }
  }
  node {
    output: "482"
    name: "Constant_88"
    op_type: "Constant"
    attribute {
      name: "value"
      t {
        data_type: 1
      }
      type: TENSOR
    }
  }
  node {
    output: "483"
    name: "Constant_89"
    op_type: "Constant"
    attribute {
      name: "value"
      t {
        data_type: 1
      }
      type: TENSOR
    }
  }
  node {
    input: "1471"
    input: "482"
    input: "483"
    output: "484"
    name: "Clip_90"
    op_type: "Clip"
  }
  node {
    input: "484"
    input: "1475"
    input: "1476"
    output: "1474"
    name: "Conv_91"
    op_type: "Conv"
    attribute {
      name: "dilations"
      ints: 1
      ints: 1
      type: INTS
    }
    attribute {
      name: "group"
      i: 144
      type: INT
    }
    attribute {
      name: "kernel_shape"
      ints: 3
      ints: 3
      type: INTS
    }
    attribute {
      name: "pads"
      ints: 1
      ints: 1
      ints: 1
      ints: 1
      type: INTS
    }
    attribute {
      name: "strides"
      ints: 2
      ints: 2
      type: INTS
    }
  }
  node {
    output: "487"
    name: "Constant_92"
    op_type: "Constant"
    attribute {
      name: "value"
      t {
        data_type: 1
      }
      type: TENSOR
    }
  }
  node {
    output: "488"
    name: "Constant_93"
    op_type: "Constant"
    attribute {
      name: "value"
      t {
        data_type: 1
      }
      type: TENSOR
    }
  }
  node {
    input: "1474"
    input: "487"
    input: "488"
    output: "489"
    name: "Clip_94"
    op_type: "Clip"
  }
  node {
    input: "489"
    input: "1478"
    input: "1479"
    output: "1477"
    name: "Conv_95"
    op_type: "Conv"
    attribute {
      name: "dilations"
      ints: 1
      ints: 1
      type: INTS
    }
    attribute {
      name: "group"
      i: 1
      type: INT
    }
    attribute {
      name: "kernel_shape"
      ints: 1
      ints: 1
      type: INTS
    }
    attribute {
      name: "pads"
      ints: 0
      ints: 0
      ints: 0
      ints: 0
      type: INTS
    }
    attribute {
      name: "strides"
      ints: 1
      ints: 1
      type: INTS
    }
  }
  node {
    input: "1477"
    input: "1481"
    input: "1482"
    output: "1480"
    name: "Conv_96"
    op_type: "Conv"
    attribute {
      name: "dilations"
      ints: 1
      ints: 1
      type: INTS
    }
    attribute {
      name: "group"
      i: 1
      type: INT
    }
    attribute {
      name: "kernel_shape"
      ints: 1
      ints: 1
      type: INTS
    }
    attribute {
      name: "pads"
      ints: 0
      ints: 0
      ints: 0
      ints: 0
      type: INTS
    }
    attribute {
      name: "strides"
      ints: 1
      ints: 1
      type: INTS
    }
  }
  node {
    output: "494"
    name: "Constant_97"
    op_type: "Constant"
    attribute {
      name: "value"
      t {
        data_type: 1
      }
      type: TENSOR
    }
  }
  node {
    output: "495"
    name: "Constant_98"
    op_type: "Constant"
    attribute {
      name: "value"
      t {
        data_type: 1
      }
      type: TENSOR
    }
  }
  node {
    input: "1480"
    input: "494"
    input: "495"
    output: "496"
    name: "Clip_99"
    op_type: "Clip"
  }
  node {
    input: "496"
    input: "1484"
    input: "1485"
    output: "1483"
    name: "Conv_100"
    op_type: "Conv"
    attribute {
      name: "dilations"
      ints: 1
      ints: 1
      type: INTS
    }
    attribute {
      name: "group"
      i: 192
      type: INT
    }
    attribute {
      name: "kernel_shape"
      ints: 3
      ints: 3
      type: INTS
    }
    attribute {
      name: "pads"
      ints: 1
      ints: 1
      ints: 1
      ints: 1
      type: INTS
    }
    attribute {
      name: "strides"
      ints: 1
      ints: 1
      type: INTS
    }
  }
  node {
    output: "499"
    name: "Constant_101"
    op_type: "Constant"
    attribute {
      name: "value"
      t {
        data_type: 1
      }
      type: TENSOR
    }
  }
  node {
    output: "500"
    name: "Constant_102"
    op_type: "Constant"
    attribute {
      name: "value"
      t {
        data_type: 1
      }
      type: TENSOR
    }
  }
  node {
    input: "1483"
    input: "499"
    input: "500"
    output: "501"
    name: "Clip_103"
    op_type: "Clip"
  }
  node {
    input: "501"
    input: "1487"
    input: "1488"
    output: "1486"
    name: "Conv_104"
    op_type: "Conv"
    attribute {
      name: "dilations"
      ints: 1
      ints: 1
      type: INTS
    }
    attribute {
      name: "group"
      i: 1
      type: INT
    }
    attribute {
      name: "kernel_shape"
      ints: 1
      ints: 1
      type: INTS
    }
    attribute {
      name: "pads"
      ints: 0
      ints: 0
      ints: 0
      ints: 0
      type: INTS
    }
    attribute {
      name: "strides"
      ints: 1
      ints: 1
      type: INTS
    }
  }
  node {
    input: "1477"
    input: "1486"
    output: "504"
    name: "Add_105"
    op_type: "Add"
  }
  node {
    input: "504"
    input: "1490"
    input: "1491"
    output: "1489"
    name: "Conv_106"
    op_type: "Conv"
    attribute {
      name: "dilations"
      ints: 1
      ints: 1
      type: INTS
    }
    attribute {
      name: "group"
      i: 1
      type: INT
    }
    attribute {
      name: "kernel_shape"
      ints: 1
      ints: 1
      type: INTS
    }
    attribute {
      name: "pads"
      ints: 0
      ints: 0
      ints: 0
      ints: 0
      type: INTS
    }
    attribute {
      name: "strides"
      ints: 1
      ints: 1
      type: INTS
    }
  }
  node {
    output: "507"
    name: "Constant_107"
    op_type: "Constant"
    attribute {
      name: "value"
      t {
        data_type: 1
      }
      type: TENSOR
    }
  }
  node {
    output: "508"
    name: "Constant_108"
    op_type: "Constant"
    attribute {
      name: "value"
      t {
        data_type: 1
      }
      type: TENSOR
    }
  }
  node {
    input: "1489"
    input: "507"
    input: "508"
    output: "509"
    name: "Clip_109"
    op_type: "Clip"
  }
  node {
    input: "509"
    input: "1493"
    input: "1494"
    output: "1492"
    name: "Conv_110"
    op_type: "Conv"
    attribute {
      name: "dilations"
      ints: 1
      ints: 1
      type: INTS
    }
    attribute {
      name: "group"
      i: 192
      type: INT
    }
    attribute {
      name: "kernel_shape"
      ints: 3
      ints: 3
      type: INTS
    }
    attribute {
      name: "pads"
      ints: 1
      ints: 1
      ints: 1
      ints: 1
      type: INTS
    }
    attribute {
      name: "strides"
      ints: 1
      ints: 1
      type: INTS
    }
  }
  node {
    output: "512"
    name: "Constant_111"
    op_type: "Constant"
    attribute {
      name: "value"
      t {
        data_type: 1
      }
      type: TENSOR
    }
  }
  node {
    output: "513"
    name: "Constant_112"
    op_type: "Constant"
    attribute {
      name: "value"
      t {
        data_type: 1
      }
      type: TENSOR
    }
  }
  node {
    input: "1492"
    input: "512"
    input: "513"
    output: "514"
    name: "Clip_113"
    op_type: "Clip"
  }
  node {
    input: "514"
    input: "1496"
    input: "1497"
    output: "1495"
    name: "Conv_114"
    op_type: "Conv"
    attribute {
      name: "dilations"
      ints: 1
      ints: 1
      type: INTS
    }
    attribute {
      name: "group"
      i: 1
      type: INT
    }
    attribute {
      name: "kernel_shape"
      ints: 1
      ints: 1
      type: INTS
    }
    attribute {
      name: "pads"
      ints: 0
      ints: 0
      ints: 0
      ints: 0
      type: INTS
    }
    attribute {
      name: "strides"
      ints: 1
      ints: 1
      type: INTS
    }
  }
  node {
    input: "504"
    input: "1495"
    output: "517"
    name: "Add_115"
    op_type: "Add"
  }
  node {
    input: "517"
    input: "1499"
    input: "1500"
    output: "1498"
    name: "Conv_116"
    op_type: "Conv"
    attribute {
      name: "dilations"
      ints: 1
      ints: 1
      type: INTS
    }
    attribute {
      name: "group"
      i: 1
      type: INT
    }
    attribute {
      name: "kernel_shape"
      ints: 1
      ints: 1
      type: INTS
    }
    attribute {
      name: "pads"
      ints: 0
      ints: 0
      ints: 0
      ints: 0
      type: INTS
    }
    attribute {
      name: "strides"
      ints: 1
      ints: 1
      type: INTS
    }
  }
  node {
    output: "520"
    name: "Constant_117"
    op_type: "Constant"
    attribute {
      name: "value"
      t {
        data_type: 1
      }
      type: TENSOR
    }
  }
  node {
    output: "521"
    name: "Constant_118"
    op_type: "Constant"
    attribute {
      name: "value"
      t {
        data_type: 1
      }
      type: TENSOR
    }
  }
  node {
    input: "1498"
    input: "520"
    input: "521"
    output: "522"
    name: "Clip_119"
    op_type: "Clip"
  }
  node {
    input: "522"
    input: "1502"
    input: "1503"
    output: "1501"
    name: "Conv_120"
    op_type: "Conv"
    attribute {
      name: "dilations"
      ints: 1
      ints: 1
      type: INTS
    }
    attribute {
      name: "group"
      i: 192
      type: INT
    }
    attribute {
      name: "kernel_shape"
      ints: 3
      ints: 3
      type: INTS
    }
    attribute {
      name: "pads"
      ints: 1
      ints: 1
      ints: 1
      ints: 1
      type: INTS
    }
    attribute {
      name: "strides"
      ints: 2
      ints: 2
      type: INTS
    }
  }
  node {
    output: "525"
    name: "Constant_121"
    op_type: "Constant"
    attribute {
      name: "value"
      t {
        data_type: 1
      }
      type: TENSOR
    }
  }
  node {
    output: "526"
    name: "Constant_122"
    op_type: "Constant"
    attribute {
      name: "value"
      t {
        data_type: 1
      }
      type: TENSOR
    }
  }
  node {
    input: "1501"
    input: "525"
    input: "526"
    output: "527"
    name: "Clip_123"
    op_type: "Clip"
  }
  node {
    input: "527"
    input: "1505"
    input: "1506"
    output: "1504"
    name: "Conv_124"
    op_type: "Conv"
    attribute {
      name: "dilations"
      ints: 1
      ints: 1
      type: INTS
    }
    attribute {
      name: "group"
      i: 1
      type: INT
    }
    attribute {
      name: "kernel_shape"
      ints: 1
      ints: 1
      type: INTS
    }
    attribute {
      name: "pads"
      ints: 0
      ints: 0
      ints: 0
      ints: 0
      type: INTS
    }
    attribute {
      name: "strides"
      ints: 1
      ints: 1
      type: INTS
    }
  }
  node {
    input: "1504"
    input: "1508"
    input: "1509"
    output: "1507"
    name: "Conv_125"
    op_type: "Conv"
    attribute {
      name: "dilations"
      ints: 1
      ints: 1
      type: INTS
    }
    attribute {
      name: "group"
      i: 1
      type: INT
    }
    attribute {
      name: "kernel_shape"
      ints: 1
      ints: 1
      type: INTS
    }
    attribute {
      name: "pads"
      ints: 0
      ints: 0
      ints: 0
      ints: 0
      type: INTS
    }
    attribute {
      name: "strides"
      ints: 1
      ints: 1
      type: INTS
    }
  }
  node {
    output: "532"
    name: "Constant_126"
    op_type: "Constant"
    attribute {
      name: "value"
      t {
        data_type: 1
      }
      type: TENSOR
    }
  }
  node {
    output: "533"
    name: "Constant_127"
    op_type: "Constant"
    attribute {
      name: "value"
      t {
        data_type: 1
      }
      type: TENSOR
    }
  }
  node {
    input: "1507"
    input: "532"
    input: "533"
    output: "534"
    name: "Clip_128"
    op_type: "Clip"
  }
  node {
    input: "534"
    input: "1511"
    input: "1512"
    output: "1510"
    name: "Conv_129"
    op_type: "Conv"
    attribute {
      name: "dilations"
      ints: 1
      ints: 1
      type: INTS
    }
    attribute {
      name: "group"
      i: 384
      type: INT
    }
    attribute {
      name: "kernel_shape"
      ints: 3
      ints: 3
      type: INTS
    }
    attribute {
      name: "pads"
      ints: 1
      ints: 1
      ints: 1
      ints: 1
      type: INTS
    }
    attribute {
      name: "strides"
      ints: 1
      ints: 1
      type: INTS
    }
  }
  node {
    output: "537"
    name: "Constant_130"
    op_type: "Constant"
    attribute {
      name: "value"
      t {
        data_type: 1
      }
      type: TENSOR
    }
  }
  node {
    output: "538"
    name: "Constant_131"
    op_type: "Constant"
    attribute {
      name: "value"
      t {
        data_type: 1
      }
      type: TENSOR
    }
  }
  node {
    input: "1510"
    input: "537"
    input: "538"
    output: "539"
    name: "Clip_132"
    op_type: "Clip"
  }
  node {
    input: "539"
    input: "1514"
    input: "1515"
    output: "1513"
    name: "Conv_133"
    op_type: "Conv"
    attribute {
      name: "dilations"
      ints: 1
      ints: 1
      type: INTS
    }
    attribute {
      name: "group"
      i: 1
      type: INT
    }
    attribute {
      name: "kernel_shape"
      ints: 1
      ints: 1
      type: INTS
    }
    attribute {
      name: "pads"
      ints: 0
      ints: 0
      ints: 0
      ints: 0
      type: INTS
    }
    attribute {
      name: "strides"
      ints: 1
      ints: 1
      type: INTS
    }
  }
  node {
    input: "1504"
    input: "1513"
    output: "542"
    name: "Add_134"
    op_type: "Add"
  }
  node {
    input: "542"
    input: "1517"
    input: "1518"
    output: "1516"
    name: "Conv_135"
    op_type: "Conv"
    attribute {
      name: "dilations"
      ints: 1
      ints: 1
      type: INTS
    }
    attribute {
      name: "group"
      i: 1
      type: INT
    }
    attribute {
      name: "kernel_shape"
      ints: 1
      ints: 1
      type: INTS
    }
    attribute {
      name: "pads"
      ints: 0
      ints: 0
      ints: 0
      ints: 0
      type: INTS
    }
    attribute {
      name: "strides"
      ints: 1
      ints: 1
      type: INTS
    }
  }
  node {
    output: "545"
    name: "Constant_136"
    op_type: "Constant"
    attribute {
      name: "value"
      t {
        data_type: 1
      }
      type: TENSOR
    }
  }
  node {
    output: "546"
    name: "Constant_137"
    op_type: "Constant"
    attribute {
      name: "value"
      t {
        data_type: 1
      }
      type: TENSOR
    }
  }
  node {
    input: "1516"
    input: "545"
    input: "546"
    output: "547"
    name: "Clip_138"
    op_type: "Clip"
  }
  node {
    input: "547"
    input: "1520"
    input: "1521"
    output: "1519"
    name: "Conv_139"
    op_type: "Conv"
    attribute {
      name: "dilations"
      ints: 1
      ints: 1
      type: INTS
    }
    attribute {
      name: "group"
      i: 384
      type: INT
    }
    attribute {
      name: "kernel_shape"
      ints: 3
      ints: 3
      type: INTS
    }
    attribute {
      name: "pads"
      ints: 1
      ints: 1
      ints: 1
      ints: 1
      type: INTS
    }
    attribute {
      name: "strides"
      ints: 1
      ints: 1
      type: INTS
    }
  }
  node {
    output: "550"
    name: "Constant_140"
    op_type: "Constant"
    attribute {
      name: "value"
      t {
        data_type: 1
      }
      type: TENSOR
    }
  }
  node {
    output: "551"
    name: "Constant_141"
    op_type: "Constant"
    attribute {
      name: "value"
      t {
        data_type: 1
      }
      type: TENSOR
    }
  }
  node {
    input: "1519"
    input: "550"
    input: "551"
    output: "552"
    name: "Clip_142"
    op_type: "Clip"
  }
  node {
    input: "552"
    input: "1523"
    input: "1524"
    output: "1522"
    name: "Conv_143"
    op_type: "Conv"
    attribute {
      name: "dilations"
      ints: 1
      ints: 1
      type: INTS
    }
    attribute {
      name: "group"
      i: 1
      type: INT
    }
    attribute {
      name: "kernel_shape"
      ints: 1
      ints: 1
      type: INTS
    }
    attribute {
      name: "pads"
      ints: 0
      ints: 0
      ints: 0
      ints: 0
      type: INTS
    }
    attribute {
      name: "strides"
      ints: 1
      ints: 1
      type: INTS
    }
  }
  node {
    input: "542"
    input: "1522"
    output: "555"
    name: "Add_144"
    op_type: "Add"
  }
  node {
    input: "555"
    input: "1526"
    input: "1527"
    output: "1525"
    name: "Conv_145"
    op_type: "Conv"
    attribute {
      name: "dilations"
      ints: 1
      ints: 1
      type: INTS
    }
    attribute {
      name: "group"
      i: 1
      type: INT
    }
    attribute {
      name: "kernel_shape"
      ints: 1
      ints: 1
      type: INTS
    }
    attribute {
      name: "pads"
      ints: 0
      ints: 0
      ints: 0
      ints: 0
      type: INTS
    }
    attribute {
      name: "strides"
      ints: 1
      ints: 1
      type: INTS
    }
  }
  node {
    output: "558"
    name: "Constant_146"
    op_type: "Constant"
    attribute {
      name: "value"
      t {
        data_type: 1
      }
      type: TENSOR
    }
  }
  node {
    output: "559"
    name: "Constant_147"
    op_type: "Constant"
    attribute {
      name: "value"
      t {
        data_type: 1
      }
      type: TENSOR
    }
  }
  node {
    input: "1525"
    input: "558"
    input: "559"
    output: "560"
    name: "Clip_148"
    op_type: "Clip"
  }
  node {
    input: "560"
    input: "1529"
    input: "1530"
    output: "1528"
    name: "Conv_149"
    op_type: "Conv"
    attribute {
      name: "dilations"
      ints: 1
      ints: 1
      type: INTS
    }
    attribute {
      name: "group"
      i: 384
      type: INT
    }
    attribute {
      name: "kernel_shape"
      ints: 3
      ints: 3
      type: INTS
    }
    attribute {
      name: "pads"
      ints: 1
      ints: 1
      ints: 1
      ints: 1
      type: INTS
    }
    attribute {
      name: "strides"
      ints: 1
      ints: 1
      type: INTS
    }
  }
  node {
    output: "563"
    name: "Constant_150"
    op_type: "Constant"
    attribute {
      name: "value"
      t {
        data_type: 1
      }
      type: TENSOR
    }
  }
  node {
    output: "564"
    name: "Constant_151"
    op_type: "Constant"
    attribute {
      name: "value"
      t {
        data_type: 1
      }
      type: TENSOR
    }
  }
  node {
    input: "1528"
    input: "563"
    input: "564"
    output: "565"
    name: "Clip_152"
    op_type: "Clip"
  }
  node {
    input: "565"
    input: "1532"
    input: "1533"
    output: "1531"
    name: "Conv_153"
    op_type: "Conv"
    attribute {
      name: "dilations"
      ints: 1
      ints: 1
      type: INTS
    }
    attribute {
      name: "group"
      i: 1
      type: INT
    }
    attribute {
      name: "kernel_shape"
      ints: 1
      ints: 1
      type: INTS
    }
    attribute {
      name: "pads"
      ints: 0
      ints: 0
      ints: 0
      ints: 0
      type: INTS
    }
    attribute {
      name: "strides"
      ints: 1
      ints: 1
      type: INTS
    }
  }
  node {
    input: "555"
    input: "1531"
    output: "568"
    name: "Add_154"
    op_type: "Add"
  }
  node {
    input: "568"
    input: "1535"
    input: "1536"
    output: "1534"
    name: "Conv_155"
    op_type: "Conv"
    attribute {
      name: "dilations"
      ints: 1
      ints: 1
      type: INTS
    }
    attribute {
      name: "group"
      i: 1
      type: INT
    }
    attribute {
      name: "kernel_shape"
      ints: 1
      ints: 1
      type: INTS
    }
    attribute {
      name: "pads"
      ints: 0
      ints: 0
      ints: 0
      ints: 0
      type: INTS
    }
    attribute {
      name: "strides"
      ints: 1
      ints: 1
      type: INTS
    }
  }
  node {
    output: "571"
    name: "Constant_156"
    op_type: "Constant"
    attribute {
      name: "value"
      t {
        data_type: 1
      }
      type: TENSOR
    }
  }
  node {
    output: "572"
    name: "Constant_157"
    op_type: "Constant"
    attribute {
      name: "value"
      t {
        data_type: 1
      }
      type: TENSOR
    }
  }
  node {
    input: "1534"
    input: "571"
    input: "572"
    output: "573"
    name: "Clip_158"
    op_type: "Clip"
  }
  node {
    input: "573"
    input: "1538"
    input: "1539"
    output: "1537"
    name: "Conv_159"
    op_type: "Conv"
    attribute {
      name: "dilations"
      ints: 1
      ints: 1
      type: INTS
    }
    attribute {
      name: "group"
      i: 384
      type: INT
    }
    attribute {
      name: "kernel_shape"
      ints: 3
      ints: 3
      type: INTS
    }
    attribute {
      name: "pads"
      ints: 1
      ints: 1
      ints: 1
      ints: 1
      type: INTS
    }
    attribute {
      name: "strides"
      ints: 1
      ints: 1
      type: INTS
    }
  }
  node {
    output: "576"
    name: "Constant_160"
    op_type: "Constant"
    attribute {
      name: "value"
      t {
        data_type: 1
      }
      type: TENSOR
    }
  }
  node {
    output: "577"
    name: "Constant_161"
    op_type: "Constant"
    attribute {
      name: "value"
      t {
        data_type: 1
      }
      type: TENSOR
    }
  }
  node {
    input: "1537"
    input: "576"
    input: "577"
    output: "578"
    name: "Clip_162"
    op_type: "Clip"
  }
  node {
    input: "578"
    input: "1541"
    input: "1542"
    output: "1540"
    name: "Conv_163"
    op_type: "Conv"
    attribute {
      name: "dilations"
      ints: 1
      ints: 1
      type: INTS
    }
    attribute {
      name: "group"
      i: 1
      type: INT
    }
    attribute {
      name: "kernel_shape"
      ints: 1
      ints: 1
      type: INTS
    }
    attribute {
      name: "pads"
      ints: 0
      ints: 0
      ints: 0
      ints: 0
      type: INTS
    }
    attribute {
      name: "strides"
      ints: 1
      ints: 1
      type: INTS
    }
  }
  node {
    input: "1540"
    input: "1544"
    input: "1545"
    output: "1543"
    name: "Conv_164"
    op_type: "Conv"
    attribute {
      name: "dilations"
      ints: 1
      ints: 1
      type: INTS
    }
    attribute {
      name: "group"
      i: 1
      type: INT
    }
    attribute {
      name: "kernel_shape"
      ints: 1
      ints: 1
      type: INTS
    }
    attribute {
      name: "pads"
      ints: 0
      ints: 0
      ints: 0
      ints: 0
      type: INTS
    }
    attribute {
      name: "strides"
      ints: 1
      ints: 1
      type: INTS
    }
  }
  node {
    output: "583"
    name: "Constant_165"
    op_type: "Constant"
    attribute {
      name: "value"
      t {
        data_type: 1
      }
      type: TENSOR
    }
  }
  node {
    output: "584"
    name: "Constant_166"
    op_type: "Constant"
    attribute {
      name: "value"
      t {
        data_type: 1
      }
      type: TENSOR
    }
  }
  node {
    input: "1543"
    input: "583"
    input: "584"
    output: "585"
    name: "Clip_167"
    op_type: "Clip"
  }
  node {
    input: "585"
    input: "1547"
    input: "1548"
    output: "1546"
    name: "Conv_168"
    op_type: "Conv"
    attribute {
      name: "dilations"
      ints: 1
      ints: 1
      type: INTS
    }
    attribute {
      name: "group"
      i: 576
      type: INT
    }
    attribute {
      name: "kernel_shape"
      ints: 3
      ints: 3
      type: INTS
    }
    attribute {
      name: "pads"
      ints: 1
      ints: 1
      ints: 1
      ints: 1
      type: INTS
    }
    attribute {
      name: "strides"
      ints: 1
      ints: 1
      type: INTS
    }
  }
  node {
    output: "588"
    name: "Constant_169"
    op_type: "Constant"
    attribute {
      name: "value"
      t {
        data_type: 1
      }
      type: TENSOR
    }
  }
  node {
    output: "589"
    name: "Constant_170"
    op_type: "Constant"
    attribute {
      name: "value"
      t {
        data_type: 1
      }
      type: TENSOR
    }
  }
  node {
    input: "1546"
    input: "588"
    input: "589"
    output: "590"
    name: "Clip_171"
    op_type: "Clip"
  }
  node {
    input: "590"
    input: "1550"
    input: "1551"
    output: "1549"
    name: "Conv_172"
    op_type: "Conv"
    attribute {
      name: "dilations"
      ints: 1
      ints: 1
      type: INTS
    }
    attribute {
      name: "group"
      i: 1
      type: INT
    }
    attribute {
      name: "kernel_shape"
      ints: 1
      ints: 1
      type: INTS
    }
    attribute {
      name: "pads"
      ints: 0
      ints: 0
      ints: 0
      ints: 0
      type: INTS
    }
    attribute {
      name: "strides"
      ints: 1
      ints: 1
      type: INTS
    }
  }
  node {
    input: "1540"
    input: "1549"
    output: "593"
    name: "Add_173"
    op_type: "Add"
  }
  node {
    input: "593"
    input: "1553"
    input: "1554"
    output: "1552"
    name: "Conv_174"
    op_type: "Conv"
    attribute {
      name: "dilations"
      ints: 1
      ints: 1
      type: INTS
    }
    attribute {
      name: "group"
      i: 1
      type: INT
    }
    attribute {
      name: "kernel_shape"
      ints: 1
      ints: 1
      type: INTS
    }
    attribute {
      name: "pads"
      ints: 0
      ints: 0
      ints: 0
      ints: 0
      type: INTS
    }
    attribute {
      name: "strides"
      ints: 1
      ints: 1
      type: INTS
    }
  }
  node {
    output: "596"
    name: "Constant_175"
    op_type: "Constant"
    attribute {
      name: "value"
      t {
        data_type: 1
      }
      type: TENSOR
    }
  }
  node {
    output: "597"
    name: "Constant_176"
    op_type: "Constant"
    attribute {
      name: "value"
      t {
        data_type: 1
      }
      type: TENSOR
    }
  }
  node {
    input: "1552"
    input: "596"
    input: "597"
    output: "598"
    name: "Clip_177"
    op_type: "Clip"
  }
  node {
    input: "598"
    input: "1556"
    input: "1557"
    output: "1555"
    name: "Conv_178"
    op_type: "Conv"
    attribute {
      name: "dilations"
      ints: 1
      ints: 1
      type: INTS
    }
    attribute {
      name: "group"
      i: 576
      type: INT
    }
    attribute {
      name: "kernel_shape"
      ints: 3
      ints: 3
      type: INTS
    }
    attribute {
      name: "pads"
      ints: 1
      ints: 1
      ints: 1
      ints: 1
      type: INTS
    }
    attribute {
      name: "strides"
      ints: 1
      ints: 1
      type: INTS
    }
  }
  node {
    output: "601"
    name: "Constant_179"
    op_type: "Constant"
    attribute {
      name: "value"
      t {
        data_type: 1
      }
      type: TENSOR
    }
  }
  node {
    output: "602"
    name: "Constant_180"
    op_type: "Constant"
    attribute {
      name: "value"
      t {
        data_type: 1
      }
      type: TENSOR
    }
  }
  node {
    input: "1555"
    input: "601"
    input: "602"
    output: "603"
    name: "Clip_181"
    op_type: "Clip"
  }
  node {
    input: "603"
    input: "1559"
    input: "1560"
    output: "1558"
    name: "Conv_182"
    op_type: "Conv"
    attribute {
      name: "dilations"
      ints: 1
      ints: 1
      type: INTS
    }
    attribute {
      name: "group"
      i: 1
      type: INT
    }
    attribute {
      name: "kernel_shape"
      ints: 1
      ints: 1
      type: INTS
    }
    attribute {
      name: "pads"
      ints: 0
      ints: 0
      ints: 0
      ints: 0
      type: INTS
    }
    attribute {
      name: "strides"
      ints: 1
      ints: 1
      type: INTS
    }
  }
  node {
    input: "593"
    input: "1558"
    output: "606"
    name: "Add_183"
    op_type: "Add"
  }
  node {
    input: "606"
    input: "1562"
    input: "1563"
    output: "1561"
    name: "Conv_184"
    op_type: "Conv"
    attribute {
      name: "dilations"
      ints: 1
      ints: 1
      type: INTS
    }
    attribute {
      name: "group"
      i: 1
      type: INT
    }
    attribute {
      name: "kernel_shape"
      ints: 1
      ints: 1
      type: INTS
    }
    attribute {
      name: "pads"
      ints: 0
      ints: 0
      ints: 0
      ints: 0
      type: INTS
    }
    attribute {
      name: "strides"
      ints: 1
      ints: 1
      type: INTS
    }
  }
  node {
    output: "609"
    name: "Constant_185"
    op_type: "Constant"
    attribute {
      name: "value"
      t {
        data_type: 1
      }
      type: TENSOR
    }
  }
  node {
    output: "610"
    name: "Constant_186"
    op_type: "Constant"
    attribute {
      name: "value"
      t {
        data_type: 1
      }
      type: TENSOR
    }
  }
  node {
    input: "1561"
    input: "609"
    input: "610"
    output: "611"
    name: "Clip_187"
    op_type: "Clip"
  }
  node {
    input: "611"
    input: "1565"
    input: "1566"
    output: "1564"
    name: "Conv_188"
    op_type: "Conv"
    attribute {
      name: "dilations"
      ints: 1
      ints: 1
      type: INTS
    }
    attribute {
      name: "group"
      i: 576
      type: INT
    }
    attribute {
      name: "kernel_shape"
      ints: 3
      ints: 3
      type: INTS
    }
    attribute {
      name: "pads"
      ints: 1
      ints: 1
      ints: 1
      ints: 1
      type: INTS
    }
    attribute {
      name: "strides"
      ints: 1
      ints: 1
      type: INTS
    }
  }
  node {
    output: "614"
    name: "Constant_189"
    op_type: "Constant"
    attribute {
      name: "value"
      t {
        data_type: 1
      }
      type: TENSOR
    }
  }
  node {
    output: "615"
    name: "Constant_190"
    op_type: "Constant"
    attribute {
      name: "value"
      t {
        data_type: 1
      }
      type: TENSOR
    }
  }
  node {
    input: "1564"
    input: "614"
    input: "615"
    output: "616"
    name: "Clip_191"
    op_type: "Clip"
  }
  node {
    input: "616"
    input: "1568"
    input: "1569"
    output: "1567"
    name: "Conv_192"
    op_type: "Conv"
    attribute {
      name: "dilations"
      ints: 1
      ints: 1
      type: INTS
    }
    attribute {
      name: "group"
      i: 1
      type: INT
    }
    attribute {
      name: "kernel_shape"
      ints: 1
      ints: 1
      type: INTS
    }
    attribute {
      name: "pads"
      ints: 0
      ints: 0
      ints: 0
      ints: 0
      type: INTS
    }
    attribute {
      name: "strides"
      ints: 1
      ints: 1
      type: INTS
    }
  }
  node {
    input: "1567"
    input: "1571"
    input: "1572"
    output: "1570"
    name: "Conv_193"
    op_type: "Conv"
    attribute {
      name: "dilations"
      ints: 1
      ints: 1
      type: INTS
    }
    attribute {
      name: "group"
      i: 1
      type: INT
    }
    attribute {
      name: "kernel_shape"
      ints: 1
      ints: 1
      type: INTS
    }
    attribute {
      name: "pads"
      ints: 0
      ints: 0
      ints: 0
      ints: 0
      type: INTS
    }
    attribute {
      name: "strides"
      ints: 1
      ints: 1
      type: INTS
    }
  }
  node {
    output: "621"
    name: "Constant_194"
    op_type: "Constant"
    attribute {
      name: "value"
      t {
        data_type: 1
      }
      type: TENSOR
    }
  }
  node {
    output: "622"
    name: "Constant_195"
    op_type: "Constant"
    attribute {
      name: "value"
      t {
        data_type: 1
      }
      type: TENSOR
    }
  }
  node {
    input: "1570"
    input: "621"
    input: "622"
    output: "623"
    name: "Clip_196"
    op_type: "Clip"
  }
  node {
    input: "623"
    input: "1574"
    input: "1575"
    output: "1573"
    name: "Conv_197"
    op_type: "Conv"
    attribute {
      name: "dilations"
      ints: 2
      ints: 2
      type: INTS
    }
    attribute {
      name: "group"
      i: 960
      type: INT
    }
    attribute {
      name: "kernel_shape"
      ints: 3
      ints: 3
      type: INTS
    }
    attribute {
      name: "pads"
      ints: 2
      ints: 2
      ints: 2
      ints: 2
      type: INTS
    }
    attribute {
      name: "strides"
      ints: 1
      ints: 1
      type: INTS
    }
  }
  node {
    output: "626"
    name: "Constant_198"
    op_type: "Constant"
    attribute {
      name: "value"
      t {
        data_type: 1
      }
      type: TENSOR
    }
  }
  node {
    output: "627"
    name: "Constant_199"
    op_type: "Constant"
    attribute {
      name: "value"
      t {
        data_type: 1
      }
      type: TENSOR
    }
  }
  node {
    input: "1573"
    input: "626"
    input: "627"
    output: "628"
    name: "Clip_200"
    op_type: "Clip"
  }
  node {
    input: "628"
    input: "1577"
    input: "1578"
    output: "1576"
    name: "Conv_201"
    op_type: "Conv"
    attribute {
      name: "dilations"
      ints: 1
      ints: 1
      type: INTS
    }
    attribute {
      name: "group"
      i: 1
      type: INT
    }
    attribute {
      name: "kernel_shape"
      ints: 1
      ints: 1
      type: INTS
    }
    attribute {
      name: "pads"
      ints: 0
      ints: 0
      ints: 0
      ints: 0
      type: INTS
    }
    attribute {
      name: "strides"
      ints: 1
      ints: 1
      type: INTS
    }
  }
  node {
    input: "1567"
    input: "1576"
    output: "631"
    name: "Add_202"
    op_type: "Add"
  }
  node {
    input: "631"
    input: "1580"
    input: "1581"
    output: "1579"
    name: "Conv_203"
    op_type: "Conv"
    attribute {
      name: "dilations"
      ints: 1
      ints: 1
      type: INTS
    }
    attribute {
      name: "group"
      i: 1
      type: INT
    }
    attribute {
      name: "kernel_shape"
      ints: 1
      ints: 1
      type: INTS
    }
    attribute {
      name: "pads"
      ints: 0
      ints: 0
      ints: 0
      ints: 0
      type: INTS
    }
    attribute {
      name: "strides"
      ints: 1
      ints: 1
      type: INTS
    }
  }
  node {
    output: "634"
    name: "Constant_204"
    op_type: "Constant"
    attribute {
      name: "value"
      t {
        data_type: 1
      }
      type: TENSOR
    }
  }
  node {
    output: "635"
    name: "Constant_205"
    op_type: "Constant"
    attribute {
      name: "value"
      t {
        data_type: 1
      }
      type: TENSOR
    }
  }
  node {
    input: "1579"
    input: "634"
    input: "635"
    output: "636"
    name: "Clip_206"
    op_type: "Clip"
  }
  node {
    input: "636"
    input: "1583"
    input: "1584"
    output: "1582"
    name: "Conv_207"
    op_type: "Conv"
    attribute {
      name: "dilations"
      ints: 2
      ints: 2
      type: INTS
    }
    attribute {
      name: "group"
      i: 960
      type: INT
    }
    attribute {
      name: "kernel_shape"
      ints: 3
      ints: 3
      type: INTS
    }
    attribute {
      name: "pads"
      ints: 2
      ints: 2
      ints: 2
      ints: 2
      type: INTS
    }
    attribute {
      name: "strides"
      ints: 1
      ints: 1
      type: INTS
    }
  }
  node {
    output: "639"
    name: "Constant_208"
    op_type: "Constant"
    attribute {
      name: "value"
      t {
        data_type: 1
      }
      type: TENSOR
    }
  }
  node {
    output: "640"
    name: "Constant_209"
    op_type: "Constant"
    attribute {
      name: "value"
      t {
        data_type: 1
      }
      type: TENSOR
    }
  }
  node {
    input: "1582"
    input: "639"
    input: "640"
    output: "641"
    name: "Clip_210"
    op_type: "Clip"
  }
  node {
    input: "641"
    input: "1586"
    input: "1587"
    output: "1585"
    name: "Conv_211"
    op_type: "Conv"
    attribute {
      name: "dilations"
      ints: 1
      ints: 1
      type: INTS
    }
    attribute {
      name: "group"
      i: 1
      type: INT
    }
    attribute {
      name: "kernel_shape"
      ints: 1
      ints: 1
      type: INTS
    }
    attribute {
      name: "pads"
      ints: 0
      ints: 0
      ints: 0
      ints: 0
      type: INTS
    }
    attribute {
      name: "strides"
      ints: 1
      ints: 1
      type: INTS
    }
  }
  node {
    input: "631"
    input: "1585"
    output: "644"
    name: "Add_212"
    op_type: "Add"
  }
  node {
    input: "644"
    input: "1589"
    input: "1590"
    output: "1588"
    name: "Conv_213"
    op_type: "Conv"
    attribute {
      name: "dilations"
      ints: 1
      ints: 1
      type: INTS
    }
    attribute {
      name: "group"
      i: 1
      type: INT
    }
    attribute {
      name: "kernel_shape"
      ints: 1
      ints: 1
      type: INTS
    }
    attribute {
      name: "pads"
      ints: 0
      ints: 0
      ints: 0
      ints: 0
      type: INTS
    }
    attribute {
      name: "strides"
      ints: 1
      ints: 1
      type: INTS
    }
  }
  node {
    output: "647"
    name: "Constant_214"
    op_type: "Constant"
    attribute {
      name: "value"
      t {
        data_type: 1
      }
      type: TENSOR
    }
  }
  node {
    output: "648"
    name: "Constant_215"
    op_type: "Constant"
    attribute {
      name: "value"
      t {
        data_type: 1
      }
      type: TENSOR
    }
  }
  node {
    input: "1588"
    input: "647"
    input: "648"
    output: "649"
    name: "Clip_216"
    op_type: "Clip"
  }
  node {
    input: "649"
    input: "1592"
    input: "1593"
    output: "1591"
    name: "Conv_217"
    op_type: "Conv"
    attribute {
      name: "dilations"
      ints: 2
      ints: 2
      type: INTS
    }
    attribute {
      name: "group"
      i: 960
      type: INT
    }
    attribute {
      name: "kernel_shape"
      ints: 3
      ints: 3
      type: INTS
    }
    attribute {
      name: "pads"
      ints: 2
      ints: 2
      ints: 2
      ints: 2
      type: INTS
    }
    attribute {
      name: "strides"
      ints: 1
      ints: 1
      type: INTS
    }
  }
  node {
    output: "652"
    name: "Constant_218"
    op_type: "Constant"
    attribute {
      name: "value"
      t {
        data_type: 1
      }
      type: TENSOR
    }
  }
  node {
    output: "653"
    name: "Constant_219"
    op_type: "Constant"
    attribute {
      name: "value"
      t {
        data_type: 1
      }
      type: TENSOR
    }
  }
  node {
    input: "1591"
    input: "652"
    input: "653"
    output: "654"
    name: "Clip_220"
    op_type: "Clip"
  }
  node {
    input: "654"
    input: "1595"
    input: "1596"
    output: "1594"
    name: "Conv_221"
    op_type: "Conv"
    attribute {
      name: "dilations"
      ints: 1
      ints: 1
      type: INTS
    }
    attribute {
      name: "group"
      i: 1
      type: INT
    }
    attribute {
      name: "kernel_shape"
      ints: 1
      ints: 1
      type: INTS
    }
    attribute {
      name: "pads"
      ints: 0
      ints: 0
      ints: 0
      ints: 0
      type: INTS
    }
    attribute {
      name: "strides"
      ints: 1
      ints: 1
      type: INTS
    }
  }
  node {
    input: "1594"
    input: "1598"
    input: "1599"
    output: "1597"
    name: "Conv_222"
    op_type: "Conv"
    attribute {
      name: "dilations"
      ints: 1
      ints: 1
      type: INTS
    }
    attribute {
      name: "group"
      i: 1
      type: INT
    }
    attribute {
      name: "kernel_shape"
      ints: 1
      ints: 1
      type: INTS
    }
    attribute {
      name: "pads"
      ints: 0
      ints: 0
      ints: 0
      ints: 0
      type: INTS
    }
    attribute {
      name: "strides"
      ints: 1
      ints: 1
      type: INTS
    }
  }
  node {
    input: "1597"
    output: "659"
    name: "Relu_223"
    op_type: "Relu"
  }
  node {
    input: "1594"
    input: "1601"
    input: "1602"
    output: "1600"
    name: "Conv_224"
    op_type: "Conv"
    attribute {
      name: "dilations"
      ints: 3
      ints: 3
      type: INTS
    }
    attribute {
      name: "group"
      i: 1
      type: INT
    }
    attribute {
      name: "kernel_shape"
      ints: 3
      ints: 3
      type: INTS
    }
    attribute {
      name: "pads"
      ints: 3
      ints: 3
      ints: 3
      ints: 3
      type: INTS
    }
    attribute {
      name: "strides"
      ints: 1
      ints: 1
      type: INTS
    }
  }
  node {
    input: "1600"
    output: "662"
    name: "Relu_225"
    op_type: "Relu"
  }
  node {
    input: "1594"
    input: "1604"
    input: "1605"
    output: "1603"
    name: "Conv_226"
    op_type: "Conv"
    attribute {
      name: "dilations"
      ints: 6
      ints: 6
      type: INTS
    }
    attribute {
      name: "group"
      i: 1
      type: INT
    }
    attribute {
      name: "kernel_shape"
      ints: 3
      ints: 3
      type: INTS
    }
    attribute {
      name: "pads"
      ints: 6
      ints: 6
      ints: 6
      ints: 6
      type: INTS
    }
    attribute {
      name: "strides"
      ints: 1
      ints: 1
      type: INTS
    }
  }
  node {
    input: "1603"
    output: "665"
    name: "Relu_227"
    op_type: "Relu"
  }
  node {
    input: "1594"
    input: "1607"
    input: "1608"
    output: "1606"
    name: "Conv_228"
    op_type: "Conv"
    attribute {
      name: "dilations"
      ints: 9
      ints: 9
      type: INTS
    }
    attribute {
      name: "group"
      i: 1
      type: INT
    }
    attribute {
      name: "kernel_shape"
      ints: 3
      ints: 3
      type: INTS
    }
    attribute {
      name: "pads"
      ints: 9
      ints: 9
      ints: 9
      ints: 9
      type: INTS
    }
    attribute {
      name: "strides"
      ints: 1
      ints: 1
      type: INTS
    }
  }
  node {
    input: "1606"
    output: "668"
    name: "Relu_229"
    op_type: "Relu"
  }
  node {
    input: "1594"
    output: "669"
    name: "Shape_230"
    op_type: "Shape"
  }
  node {
    output: "670"
    name: "Constant_231"
    op_type: "Constant"
    attribute {
      name: "value"
      t {
        data_type: 7
      }
      type: TENSOR
    }
  }
  node {
    input: "669"
    input: "670"
    output: "671"
    name: "Gather_232"
    op_type: "Gather"
    attribute {
      name: "axis"
      i: 0
      type: INT
    }
  }
  node {
    input: "1594"
    output: "672"
    name: "Shape_233"
    op_type: "Shape"
  }
  node {
    output: "673"
    name: "Constant_234"
    op_type: "Constant"
    attribute {
      name: "value"
      t {
        data_type: 7
      }
      type: TENSOR
    }
  }
  node {
    input: "672"
    input: "673"
    output: "674"
    name: "Gather_235"
    op_type: "Gather"
    attribute {
      name: "axis"
      i: 0
      type: INT
    }
  }
  node {
    input: "1594"
    output: "675"
    name: "GlobalAveragePool_236"
    op_type: "GlobalAveragePool"
  }
  node {
    input: "675"
    input: "1610"
    input: "1611"
    output: "1609"
    name: "Conv_237"
    op_type: "Conv"
    attribute {
      name: "dilations"
      ints: 1
      ints: 1
      type: INTS
    }
    attribute {
      name: "group"
      i: 1
      type: INT
    }
    attribute {
      name: "kernel_shape"
      ints: 1
      ints: 1
      type: INTS
    }
    attribute {
      name: "pads"
      ints: 0
      ints: 0
      ints: 0
      ints: 0
      type: INTS
    }
    attribute {
      name: "strides"
      ints: 1
      ints: 1
      type: INTS
    }
  }
  node {
    input: "1609"
    output: "678"
    name: "Relu_238"
    op_type: "Relu"
  }
  node {
    input: "671"
    output: "679"
    name: "Unsqueeze_239"
    op_type: "Unsqueeze"
    attribute {
      name: "axes"
      ints: 0
      type: INTS
    }
  }
  node {
    input: "674"
    output: "680"
    name: "Unsqueeze_240"
    op_type: "Unsqueeze"
    attribute {
      name: "axes"
      ints: 0
      type: INTS
    }
  }
  node {
    input: "679"
    input: "680"
    output: "681"
    name: "Concat_241"
    op_type: "Concat"
    attribute {
      name: "axis"
      i: 0
      type: INT
    }
  }
  node {
    input: "678"
    output: "682"
    name: "Shape_242"
    op_type: "Shape"
  }
  node {
    output: "683"
    name: "Constant_243"
    op_type: "Constant"
    attribute {
      name: "value"
      t {
        dims: 1
        data_type: 7
      }
      type: TENSOR
    }
  }
  node {
    output: "684"
    name: "Constant_244"
    op_type: "Constant"
    attribute {
      name: "value"
      t {
        dims: 1
        data_type: 7
      }
      type: TENSOR
    }
  }
  node {
    output: "685"
    name: "Constant_245"
    op_type: "Constant"
    attribute {
      name: "value"
      t {
        dims: 1
        data_type: 7
      }
      type: TENSOR
    }
  }
  node {
    input: "682"
    input: "684"
    input: "685"
    input: "683"
    output: "686"
    name: "Slice_246"
    op_type: "Slice"
  }
  node {
    input: "681"
    output: "687"
    name: "Cast_247"
    op_type: "Cast"
    attribute {
      name: "to"
      i: 7
      type: INT
    }
  }
  node {
    input: "686"
    input: "687"
    output: "688"
    name: "Concat_248"
    op_type: "Concat"
    attribute {
      name: "axis"
      i: 0
      type: INT
    }
  }
  node {
    output: "689"
    name: "Constant_249"
    op_type: "Constant"
    attribute {
      name: "value"
      t {
        dims: 0
        data_type: 1
      }
      type: TENSOR
    }
  }
  node {
    output: "690"
    name: "Constant_250"
    op_type: "Constant"
    attribute {
      name: "value"
      t {
        dims: 0
        data_type: 1
      }
      type: TENSOR
    }
  }
  node {
    input: "678"
    input: "689"
    input: "690"
    input: "688"
    output: "691"
    name: "Resize_251"
    op_type: "Resize"
    attribute {
      name: "coordinate_transformation_mode"
      s: "pytorch_half_pixel"
      type: STRING
    }
    attribute {
      name: "cubic_coeff_a"
      f: -0.75
      type: FLOAT
    }
    attribute {
      name: "mode"
      s: "linear"
      type: STRING
    }
    attribute {
      name: "nearest_mode"
      s: "floor"
      type: STRING
    }
  }
  node {
    input: "659"
    input: "662"
    input: "665"
    input: "668"
    input: "691"
    output: "692"
    name: "Concat_252"
    op_type: "Concat"
    attribute {
      name: "axis"
      i: 1
      type: INT
    }
  }
  node {
    input: "692"
    input: "1613"
    input: "1614"
    output: "1612"
    name: "Conv_253"
    op_type: "Conv"
    attribute {
      name: "dilations"
      ints: 1
      ints: 1
      type: INTS
    }
    attribute {
      name: "group"
      i: 1
      type: INT
    }
    attribute {
      name: "kernel_shape"
      ints: 1
      ints: 1
      type: INTS
    }
    attribute {
      name: "pads"
      ints: 0
      ints: 0
      ints: 0
      ints: 0
      type: INTS
    }
    attribute {
      name: "strides"
      ints: 1
      ints: 1
      type: INTS
    }
  }
  node {
    input: "1612"
    output: "695"
    name: "Relu_254"
    op_type: "Relu"
  }
  node {
    input: "517"
    output: "696"
    name: "Shape_255"
    op_type: "Shape"
  }
  node {
    output: "697"
    name: "Constant_256"
    op_type: "Constant"
    attribute {
      name: "value"
      t {
        data_type: 7
      }
      type: TENSOR
    }
  }
  node {
    input: "696"
    input: "697"
    output: "698"
    name: "Gather_257"
    op_type: "Gather"
    attribute {
      name: "axis"
      i: 0
      type: INT
    }
  }
  node {
    input: "517"
    output: "699"
    name: "Shape_258"
    op_type: "Shape"
  }
  node {
    output: "700"
    name: "Constant_259"
    op_type: "Constant"
    attribute {
      name: "value"
      t {
        data_type: 7
      }
      type: TENSOR
    }
  }
  node {
    input: "699"
    input: "700"
    output: "701"
    name: "Gather_260"
    op_type: "Gather"
    attribute {
      name: "axis"
      i: 0
      type: INT
    }
  }
  node {
    input: "698"
    output: "702"
    name: "Unsqueeze_261"
    op_type: "Unsqueeze"
    attribute {
      name: "axes"
      ints: 0
      type: INTS
    }
  }
  node {
    input: "701"
    output: "703"
    name: "Unsqueeze_262"
    op_type: "Unsqueeze"
    attribute {
      name: "axes"
      ints: 0
      type: INTS
    }
  }
  node {
    input: "702"
    input: "703"
    output: "704"
    name: "Concat_263"
    op_type: "Concat"
    attribute {
      name: "axis"
      i: 0
      type: INT
    }
  }
  node {
    input: "695"
    output: "705"
    name: "Shape_264"
    op_type: "Shape"
  }
  node {
    output: "706"
    name: "Constant_265"
    op_type: "Constant"
    attribute {
      name: "value"
      t {
        dims: 1
        data_type: 7
      }
      type: TENSOR
    }
  }
  node {
    output: "707"
    name: "Constant_266"
    op_type: "Constant"
    attribute {
      name: "value"
      t {
        dims: 1
        data_type: 7
      }
      type: TENSOR
    }
  }
  node {
    output: "708"
    name: "Constant_267"
    op_type: "Constant"
    attribute {
      name: "value"
      t {
        dims: 1
        data_type: 7
      }
      type: TENSOR
    }
  }
  node {
    input: "705"
    input: "707"
    input: "708"
    input: "706"
    output: "709"
    name: "Slice_268"
    op_type: "Slice"
  }
  node {
    input: "704"
    output: "710"
    name: "Cast_269"
    op_type: "Cast"
    attribute {
      name: "to"
      i: 7
      type: INT
    }
  }
  node {
    input: "709"
    input: "710"
    output: "711"
    name: "Concat_270"
    op_type: "Concat"
    attribute {
      name: "axis"
      i: 0
      type: INT
    }
  }
  node {
    output: "712"
    name: "Constant_271"
    op_type: "Constant"
    attribute {
      name: "value"
      t {
        dims: 0
        data_type: 1
      }
      type: TENSOR
    }
  }
  node {
    output: "713"
    name: "Constant_272"
    op_type: "Constant"
    attribute {
      name: "value"
      t {
        dims: 0
        data_type: 1
      }
      type: TENSOR
    }
  }
  node {
    input: "695"
    input: "712"
    input: "713"
    input: "711"
    output: "714"
    name: "Resize_273"
    op_type: "Resize"
    attribute {
      name: "coordinate_transformation_mode"
      s: "pytorch_half_pixel"
      type: STRING
    }
    attribute {
      name: "cubic_coeff_a"
      f: -0.75
      type: FLOAT
    }
    attribute {
      name: "mode"
      s: "linear"
      type: STRING
    }
    attribute {
      name: "nearest_mode"
      s: "floor"
      type: STRING
    }
  }
  node {
    input: "714"
    input: "517"
    output: "715"
    name: "Concat_274"
    op_type: "Concat"
    attribute {
      name: "axis"
      i: 1
      type: INT
    }
  }
  node {
    input: "715"
    input: "1616"
    input: "1617"
    output: "1615"
    name: "Conv_275"
    op_type: "Conv"
    attribute {
      name: "dilations"
      ints: 1
      ints: 1
      type: INTS
    }
    attribute {
      name: "group"
      i: 1
      type: INT
    }
    attribute {
      name: "kernel_shape"
      ints: 3
      ints: 3
      type: INTS
    }
    attribute {
      name: "pads"
      ints: 1
      ints: 1
      ints: 1
      ints: 1
      type: INTS
    }
    attribute {
      name: "strides"
      ints: 1
      ints: 1
      type: INTS
    }
  }
  node {
    input: "1615"
    output: "718"
    name: "Relu_276"
    op_type: "Relu"
  }
  node {
    input: "479"
    output: "719"
    name: "Shape_277"
    op_type: "Shape"
  }
  node {
    output: "720"
    name: "Constant_278"
    op_type: "Constant"
    attribute {
      name: "value"
      t {
        data_type: 7
      }
      type: TENSOR
    }
  }
  node {
    input: "719"
    input: "720"
    output: "721"
    name: "Gather_279"
    op_type: "Gather"
    attribute {
      name: "axis"
      i: 0
      type: INT
    }
  }
  node {
    input: "479"
    output: "722"
    name: "Shape_280"
    op_type: "Shape"
  }
  node {
    output: "723"
    name: "Constant_281"
    op_type: "Constant"
    attribute {
      name: "value"
      t {
        data_type: 7
      }
      type: TENSOR
    }
  }
  node {
    input: "722"
    input: "723"
    output: "724"
    name: "Gather_282"
    op_type: "Gather"
    attribute {
      name: "axis"
      i: 0
      type: INT
    }
  }
  node {
    input: "721"
    output: "725"
    name: "Unsqueeze_283"
    op_type: "Unsqueeze"
    attribute {
      name: "axes"
      ints: 0
      type: INTS
    }
  }
  node {
    input: "724"
    output: "726"
    name: "Unsqueeze_284"
    op_type: "Unsqueeze"
    attribute {
      name: "axes"
      ints: 0
      type: INTS
    }
  }
  node {
    input: "725"
    input: "726"
    output: "727"
    name: "Concat_285"
    op_type: "Concat"
    attribute {
      name: "axis"
      i: 0
      type: INT
    }
  }
  node {
    input: "718"
    output: "728"
    name: "Shape_286"
    op_type: "Shape"
  }
  node {
    output: "729"
    name: "Constant_287"
    op_type: "Constant"
    attribute {
      name: "value"
      t {
        dims: 1
        data_type: 7
      }
      type: TENSOR
    }
  }
  node {
    output: "730"
    name: "Constant_288"
    op_type: "Constant"
    attribute {
      name: "value"
      t {
        dims: 1
        data_type: 7
      }
      type: TENSOR
    }
  }
  node {
    output: "731"
    name: "Constant_289"
    op_type: "Constant"
    attribute {
      name: "value"
      t {
        dims: 1
        data_type: 7
      }
      type: TENSOR
    }
  }
  node {
    input: "728"
    input: "730"
    input: "731"
    input: "729"
    output: "732"
    name: "Slice_290"
    op_type: "Slice"
  }
  node {
    input: "727"
    output: "733"
    name: "Cast_291"
    op_type: "Cast"
    attribute {
      name: "to"
      i: 7
      type: INT
    }
  }
  node {
    input: "732"
    input: "733"
    output: "734"
    name: "Concat_292"
    op_type: "Concat"
    attribute {
      name: "axis"
      i: 0
      type: INT
    }
  }
  node {
    output: "735"
    name: "Constant_293"
    op_type: "Constant"
    attribute {
      name: "value"
      t {
        dims: 0
        data_type: 1
      }
      type: TENSOR
    }
  }
  node {
    output: "736"
    name: "Constant_294"
    op_type: "Constant"
    attribute {
      name: "value"
      t {
        dims: 0
        data_type: 1
      }
      type: TENSOR
    }
  }
  node {
    input: "718"
    input: "735"
    input: "736"
    input: "734"
    output: "737"
    name: "Resize_295"
    op_type: "Resize"
    attribute {
      name: "coordinate_transformation_mode"
      s: "pytorch_half_pixel"
      type: STRING
    }
    attribute {
      name: "cubic_coeff_a"
      f: -0.75
      type: FLOAT
    }
    attribute {
      name: "mode"
      s: "linear"
      type: STRING
    }
    attribute {
      name: "nearest_mode"
      s: "floor"
      type: STRING
    }
  }
  node {
    input: "737"
    input: "479"
    output: "738"
    name: "Concat_296"
    op_type: "Concat"
    attribute {
      name: "axis"
      i: 1
      type: INT
    }
  }
  node {
    input: "738"
    input: "1619"
    input: "1620"
    output: "1618"
    name: "Conv_297"
    op_type: "Conv"
    attribute {
      name: "dilations"
      ints: 1
      ints: 1
      type: INTS
    }
    attribute {
      name: "group"
      i: 1
      type: INT
    }
    attribute {
      name: "kernel_shape"
      ints: 3
      ints: 3
      type: INTS
    }
    attribute {
      name: "pads"
      ints: 1
      ints: 1
      ints: 1
      ints: 1
      type: INTS
    }
    attribute {
      name: "strides"
      ints: 1
      ints: 1
      type: INTS
    }
  }
  node {
    input: "1618"
    output: "741"
    name: "Relu_298"
    op_type: "Relu"
  }
  node {
    input: "1450"
    output: "742"
    name: "Shape_299"
    op_type: "Shape"
  }
  node {
    output: "743"
    name: "Constant_300"
    op_type: "Constant"
    attribute {
      name: "value"
      t {
        data_type: 7
      }
      type: TENSOR
    }
  }
  node {
    input: "742"
    input: "743"
    output: "744"
    name: "Gather_301"
    op_type: "Gather"
    attribute {
      name: "axis"
      i: 0
      type: INT
    }
  }
  node {
    input: "1450"
    output: "745"
    name: "Shape_302"
    op_type: "Shape"
  }
  node {
    output: "746"
    name: "Constant_303"
    op_type: "Constant"
    attribute {
      name: "value"
      t {
        data_type: 7
      }
      type: TENSOR
    }
  }
  node {
    input: "745"
    input: "746"
    output: "747"
    name: "Gather_304"
    op_type: "Gather"
    attribute {
      name: "axis"
      i: 0
      type: INT
    }
  }
  node {
    input: "744"
    output: "748"
    name: "Unsqueeze_305"
    op_type: "Unsqueeze"
    attribute {
      name: "axes"
      ints: 0
      type: INTS
    }
  }
  node {
    input: "747"
    output: "749"
    name: "Unsqueeze_306"
    op_type: "Unsqueeze"
    attribute {
      name: "axes"
      ints: 0
      type: INTS
    }
  }
  node {
    input: "748"
    input: "749"
    output: "750"
    name: "Concat_307"
    op_type: "Concat"
    attribute {
      name: "axis"
      i: 0
      type: INT
    }
  }
  node {
    input: "741"
    output: "751"
    name: "Shape_308"
    op_type: "Shape"
  }
  node {
    output: "752"
    name: "Constant_309"
    op_type: "Constant"
    attribute {
      name: "value"
      t {
        dims: 1
        data_type: 7
      }
      type: TENSOR
    }
  }
  node {
    output: "753"
    name: "Constant_310"
    op_type: "Constant"
    attribute {
      name: "value"
      t {
        dims: 1
        data_type: 7
      }
      type: TENSOR
    }
  }
  node {
    output: "754"
    name: "Constant_311"
    op_type: "Constant"
    attribute {
      name: "value"
      t {
        dims: 1
        data_type: 7
      }
      type: TENSOR
    }
  }
  node {
    input: "751"
    input: "753"
    input: "754"
    input: "752"
    output: "755"
    name: "Slice_312"
    op_type: "Slice"
  }
  node {
    input: "750"
    output: "756"
    name: "Cast_313"
    op_type: "Cast"
    attribute {
      name: "to"
      i: 7
      type: INT
    }
  }
  node {
    input: "755"
    input: "756"
    output: "757"
    name: "Concat_314"
    op_type: "Concat"
    attribute {
      name: "axis"
      i: 0
      type: INT
    }
  }
  node {
    output: "758"
    name: "Constant_315"
    op_type: "Constant"
    attribute {
      name: "value"
      t {
        dims: 0
        data_type: 1
      }
      type: TENSOR
    }
  }
  node {
    output: "759"
    name: "Constant_316"
    op_type: "Constant"
    attribute {
      name: "value"
      t {
        dims: 0
        data_type: 1
      }
      type: TENSOR
    }
  }
  node {
    input: "741"
    input: "758"
    input: "759"
    input: "757"
    output: "760"
    name: "Resize_317"
    op_type: "Resize"
    attribute {
      name: "coordinate_transformation_mode"
      s: "pytorch_half_pixel"
      type: STRING
    }
    attribute {
      name: "cubic_coeff_a"
      f: -0.75
      type: FLOAT
    }
    attribute {
      name: "mode"
      s: "linear"
      type: STRING
    }
    attribute {
      name: "nearest_mode"
      s: "floor"
      type: STRING
    }
  }
  node {
    input: "760"
    input: "1450"
    output: "761"
    name: "Concat_318"
    op_type: "Concat"
    attribute {
      name: "axis"
      i: 1
      type: INT
    }
  }
  node {
    input: "761"
    input: "1622"
    input: "1623"
    output: "1621"
    name: "Conv_319"
    op_type: "Conv"
    attribute {
      name: "dilations"
      ints: 1
      ints: 1
      type: INTS
    }
    attribute {
      name: "group"
      i: 1
      type: INT
    }
    attribute {
      name: "kernel_shape"
      ints: 3
      ints: 3
      type: INTS
    }
    attribute {
      name: "pads"
      ints: 1
      ints: 1
      ints: 1
      ints: 1
      type: INTS
    }
    attribute {
      name: "strides"
      ints: 1
      ints: 1
      type: INTS
    }
  }
  node {
    input: "1621"
    output: "764"
    name: "Relu_320"
    op_type: "Relu"
  }
  node {
    input: "442"
    output: "765"
    name: "Shape_321"
    op_type: "Shape"
  }
  node {
    output: "766"
    name: "Constant_322"
    op_type: "Constant"
    attribute {
      name: "value"
      t {
        data_type: 7
      }
      type: TENSOR
    }
  }
  node {
    input: "765"
    input: "766"
    output: "767"
    name: "Gather_323"
    op_type: "Gather"
    attribute {
      name: "axis"
      i: 0
      type: INT
    }
  }
  node {
    input: "442"
    output: "768"
    name: "Shape_324"
    op_type: "Shape"
  }
  node {
    output: "769"
    name: "Constant_325"
    op_type: "Constant"
    attribute {
      name: "value"
      t {
        data_type: 7
      }
      type: TENSOR
    }
  }
  node {
    input: "768"
    input: "769"
    output: "770"
    name: "Gather_326"
    op_type: "Gather"
    attribute {
      name: "axis"
      i: 0
      type: INT
    }
  }
  node {
    input: "767"
    output: "771"
    name: "Unsqueeze_327"
    op_type: "Unsqueeze"
    attribute {
      name: "axes"
      ints: 0
      type: INTS
    }
  }
  node {
    input: "770"
    output: "772"
    name: "Unsqueeze_328"
    op_type: "Unsqueeze"
    attribute {
      name: "axes"
      ints: 0
      type: INTS
    }
  }
  node {
    input: "771"
    input: "772"
    output: "773"
    name: "Concat_329"
    op_type: "Concat"
    attribute {
      name: "axis"
      i: 0
      type: INT
    }
  }
  node {
    input: "764"
    output: "774"
    name: "Shape_330"
    op_type: "Shape"
  }
  node {
    output: "775"
    name: "Constant_331"
    op_type: "Constant"
    attribute {
      name: "value"
      t {
        dims: 1
        data_type: 7
      }
      type: TENSOR
    }
  }
  node {
    output: "776"
    name: "Constant_332"
    op_type: "Constant"
    attribute {
      name: "value"
      t {
        dims: 1
        data_type: 7
      }
      type: TENSOR
    }
  }
  node {
    output: "777"
    name: "Constant_333"
    op_type: "Constant"
    attribute {
      name: "value"
      t {
        dims: 1
        data_type: 7
      }
      type: TENSOR
    }
  }
  node {
    input: "774"
    input: "776"
    input: "777"
    input: "775"
    output: "778"
    name: "Slice_334"
    op_type: "Slice"
  }
  node {
    input: "773"
    output: "779"
    name: "Cast_335"
    op_type: "Cast"
    attribute {
      name: "to"
      i: 7
      type: INT
    }
  }
  node {
    input: "778"
    input: "779"
    output: "780"
    name: "Concat_336"
    op_type: "Concat"
    attribute {
      name: "axis"
      i: 0
      type: INT
    }
  }
  node {
    output: "781"
    name: "Constant_337"
    op_type: "Constant"
    attribute {
      name: "value"
      t {
        dims: 0
        data_type: 1
      }
      type: TENSOR
    }
  }
  node {
    output: "782"
    name: "Constant_338"
    op_type: "Constant"
    attribute {
      name: "value"
      t {
        dims: 0
        data_type: 1
      }
      type: TENSOR
    }
  }
  node {
    input: "764"
    input: "781"
    input: "782"
    input: "780"
    output: "783"
    name: "Resize_339"
    op_type: "Resize"
    attribute {
      name: "coordinate_transformation_mode"
      s: "pytorch_half_pixel"
      type: STRING
    }
    attribute {
      name: "cubic_coeff_a"
      f: -0.75
      type: FLOAT
    }
    attribute {
      name: "mode"
      s: "linear"
      type: STRING
    }
    attribute {
      name: "nearest_mode"
      s: "floor"
      type: STRING
    }
  }
  node {
    input: "783"
    input: "442"
    output: "784"
    name: "Concat_340"
    op_type: "Concat"
    attribute {
      name: "axis"
      i: 1
      type: INT
    }
  }
  node {
    input: "784"
    input: "decoder.conv4.weight"
    input: "decoder.conv4.bias"
    output: "785"
    name: "Conv_341"
    op_type: "Conv"
    attribute {
      name: "dilations"
      ints: 1
      ints: 1
      type: INTS
    }
    attribute {
      name: "group"
      i: 1
      type: INT
    }
    attribute {
      name: "kernel_shape"
      ints: 3
      ints: 3
      type: INTS
    }
    attribute {
      name: "pads"
      ints: 1
      ints: 1
      ints: 1
      ints: 1
      type: INTS
    }
    attribute {
      name: "strides"
      ints: 1
      ints: 1
      type: INTS
    }
  }
  node {
    output: "786"
    name: "Constant_342"
    op_type: "Constant"
    attribute {
      name: "value"
      t {
        dims: 1
        data_type: 7
      }
      type: TENSOR
    }
  }
  node {
    output: "787"
    name: "Constant_343"
    op_type: "Constant"
    attribute {
      name: "value"
      t {
        dims: 1
        data_type: 7
      }
      type: TENSOR
    }
  }
  node {
    output: "788"
    name: "Constant_344"
    op_type: "Constant"
    attribute {
      name: "value"
      t {
        dims: 1
        data_type: 7
      }
      type: TENSOR
    }
  }
  node {
    output: "789"
    name: "Constant_345"
    op_type: "Constant"
    attribute {
      name: "value"
      t {
        dims: 1
        data_type: 7
      }
      type: TENSOR
    }
  }
  node {
    input: "785"
    input: "787"
    input: "788"
    input: "786"
    input: "789"
    output: "790"
    name: "Slice_346"
    op_type: "Slice"
  }
  node {
    input: "790"
    input: "1633"
    input: "1634"
    output: "pha_sm"
    name: "Clip_347"
    op_type: "Clip"
  }
  node {
    input: "790"
    output: "796"
    name: "Shape_348"
    op_type: "Shape"
  }
  node {
    input: "pha_sm"
    input: "796"
    output: "797"
    name: "Expand_349"
    op_type: "Expand"
  }
  node {
    input: "785"
    output: "798"
    name: "Shape_350"
    op_type: "Shape"
  }
  node {
    output: "799"
    name: "Constant_351"
    op_type: "Constant"
    attribute {
      name: "value"
      t {
        data_type: 7
      }
      type: TENSOR
    }
  }
  node {
    input: "798"
    input: "799"
    output: "800"
    name: "Gather_352"
    op_type: "Gather"
    attribute {
      name: "axis"
      i: 0
      type: INT
    }
  }
  node {
    input: "800"
    output: "801"
    name: "Cast_353"
    op_type: "Cast"
    attribute {
      name: "to"
      i: 7
      type: INT
    }
  }
  node {
    output: "802"
    name: "Constant_354"
    op_type: "Constant"
    attribute {
      name: "value"
      t {
        data_type: 7
      }
      type: TENSOR
    }
  }
  node {
    output: "803"
    name: "Constant_355"
    op_type: "Constant"
    attribute {
      name: "value"
      t {
        data_type: 7
      }
      type: TENSOR
    }
  }
  node {
    input: "802"
    input: "801"
    input: "803"
    output: "804"
    name: "Range_356"
    op_type: "Range"
  }
  node {
    input: "785"
    output: "805"
    name: "Shape_357"
    op_type: "Shape"
  }
  node {
    output: "806"
    name: "Constant_358"
    op_type: "Constant"
    attribute {
      name: "value"
      t {
        data_type: 7
      }
      type: TENSOR
    }
  }
  node {
    input: "805"
    input: "806"
    output: "807"
    name: "Gather_359"
    op_type: "Gather"
    attribute {
      name: "axis"
      i: 0
      type: INT
    }
  }
  node {
    input: "807"
    output: "808"
    name: "Cast_360"
    op_type: "Cast"
    attribute {
      name: "to"
      i: 7
      type: INT
    }
  }
  node {
    output: "809"
    name: "Constant_361"
    op_type: "Constant"
    attribute {
      name: "value"
      t {
        data_type: 7
      }
      type: TENSOR
    }
  }
  node {
    output: "810"
    name: "Constant_362"
    op_type: "Constant"
    attribute {
      name: "value"
      t {
        data_type: 7
      }
      type: TENSOR
    }
  }
  node {
    input: "809"
    input: "808"
    input: "810"
    output: "811"
    name: "Range_363"
    op_type: "Range"
  }
  node {
    output: "812"
    name: "Constant_364"
    op_type: "Constant"
    attribute {
      name: "value"
      t {
        dims: 1
        data_type: 7
      }
      type: TENSOR
    }
  }
  node {
    output: "813"
    name: "Constant_365"
    op_type: "Constant"
    attribute {
      name: "value"
      t {
        dims: 1
        data_type: 7
      }
      type: TENSOR
    }
  }
  node {
    output: "814"
    name: "Constant_366"
    op_type: "Constant"
    attribute {
      name: "value"
      t {
        dims: 1
        data_type: 7
      }
      type: TENSOR
    }
  }
  node {
    output: "815"
    name: "Constant_367"
    op_type: "Constant"
    attribute {
      name: "value"
      t {
        dims: 1
        data_type: 7
      }
      type: TENSOR
    }
  }
  node {
    input: "811"
    input: "813"
    input: "814"
    input: "812"
    input: "815"
    output: "816"
    name: "Slice_368"
    op_type: "Slice"
  }
  node {
    output: "817"
    name: "Constant_369"
    op_type: "Constant"
    attribute {
      name: "value"
      t {
        dims: 2
        data_type: 7
      }
      type: TENSOR
    }
  }
  node {
    input: "804"
    input: "817"
    output: "818"
    name: "Reshape_370"
    op_type: "Reshape"
  }
  node {
    input: "818"
    input: "816"
    output: "819"
    name: "Add_371"
    op_type: "Add"
  }
  node {
    input: "819"
    output: "820"
    name: "Shape_372"
    op_type: "Shape"
  }
  node {
    input: "820"
    output: "821"
    name: "Shape_373"
    op_type: "Shape"
  }
  node {
    input: "821"
    output: "822"
    name: "ConstantOfShape_374"
    op_type: "ConstantOfShape"
    attribute {
      name: "value"
      t {
        dims: 1
        data_type: 7
        raw_data: "\001\000\000\000\000\000\000\000"
      }
      type: TENSOR
    }
  }
  node {
    output: "823"
    name: "Constant_375"
    op_type: "Constant"
    attribute {
      name: "value"
      t {
        data_type: 7
      }
      type: TENSOR
    }
  }
  node {
    input: "822"
    input: "823"
    output: "824"
    name: "Mul_376"
    op_type: "Mul"
  }
  node {
    input: "820"
    input: "824"
    output: "825"
    name: "Equal_377"
    op_type: "Equal"
  }
  node {
    input: "825"
    input: "822"
    input: "820"
    output: "826"
    name: "Where_378"
    op_type: "Where"
  }
  node {
    input: "818"
    input: "826"
    output: "827"
    name: "Expand_379"
    op_type: "Expand"
  }
  node {
    input: "827"
    output: "828"
    name: "Unsqueeze_380"
    op_type: "Unsqueeze"
    attribute {
      name: "axes"
      ints: -1
      type: INTS
    }
  }
  node {
    input: "820"
    output: "829"
    name: "Shape_381"
    op_type: "Shape"
  }
  node {
    input: "829"
    output: "830"
    name: "ConstantOfShape_382"
    op_type: "ConstantOfShape"
    attribute {
      name: "value"
      t {
        dims: 1
        data_type: 7
        raw_data: "\001\000\000\000\000\000\000\000"
      }
      type: TENSOR
    }
  }
  node {
    output: "831"
    name: "Constant_383"
    op_type: "Constant"
    attribute {
      name: "value"
      t {
        data_type: 7
      }
      type: TENSOR
    }
  }
  node {
    input: "830"
    input: "831"
    output: "832"
    name: "Mul_384"
    op_type: "Mul"
  }
  node {
    input: "820"
    input: "832"
    output: "833"
    name: "Equal_385"
    op_type: "Equal"
  }
  node {
    input: "833"
    input: "830"
    input: "820"
    output: "834"
    name: "Where_386"
    op_type: "Where"
  }
  node {
    input: "816"
    input: "834"
    output: "835"
    name: "Expand_387"
    op_type: "Expand"
  }
  node {
    input: "835"
    output: "836"
    name: "Unsqueeze_388"
    op_type: "Unsqueeze"
    attribute {
      name: "axes"
      ints: -1
      type: INTS
    }
  }
  node {
    input: "828"
    input: "836"
    output: "837"
    name: "Concat_389"
    op_type: "Concat"
    attribute {
      name: "axis"
      i: -1
      type: INT
    }
  }
  node {
    input: "785"
    output: "838"
    name: "Shape_390"
    op_type: "Shape"
  }
  node {
    output: "839"
    name: "Constant_391"
    op_type: "Constant"
    attribute {
      name: "value"
      t {
        dims: 1
        data_type: 7
      }
      type: TENSOR
    }
  }
  node {
    output: "840"
    name: "Constant_392"
    op_type: "Constant"
    attribute {
      name: "value"
      t {
        dims: 1
        data_type: 7
      }
      type: TENSOR
    }
  }
  node {
    output: "841"
    name: "Constant_393"
    op_type: "Constant"
    attribute {
      name: "value"
      t {
        dims: 1
        data_type: 7
      }
      type: TENSOR
    }
  }
  node {
    input: "838"
    input: "840"
    input: "841"
    input: "839"
    output: "842"
    name: "Slice_394"
    op_type: "Slice"
  }
  node {
    input: "820"
    input: "842"
    output: "843"
    name: "Concat_395"
    op_type: "Concat"
    attribute {
      name: "axis"
      i: 0
      type: INT
    }
  }
  node {
    input: "797"
    input: "843"
    output: "844"
    name: "Reshape_396"
    op_type: "Reshape"
  }
  node {
    input: "785"
    input: "837"
    input: "844"
    output: "845"
    name: "ScatterND_397"
    op_type: "ScatterND"
  }
  node {
    output: "846"
    name: "Constant_398"
    op_type: "Constant"
    attribute {
      name: "value"
      t {
        dims: 1
        data_type: 7
      }
      type: TENSOR
    }
  }
  node {
    output: "847"
    name: "Constant_399"
    op_type: "Constant"
    attribute {
      name: "value"
      t {
        dims: 1
        data_type: 7
      }
      type: TENSOR
    }
  }
  node {
    output: "848"
    name: "Constant_400"
    op_type: "Constant"
    attribute {
      name: "value"
      t {
        dims: 1
        data_type: 7
      }
      type: TENSOR
    }
  }
  node {
    output: "849"
    name: "Constant_401"
    op_type: "Constant"
    attribute {
      name: "value"
      t {
        dims: 1
        data_type: 7
      }
      type: TENSOR
    }
  }
  node {
    input: "845"
    input: "847"
    input: "848"
    input: "846"
    input: "849"
    output: "850"
    name: "Slice_402"
    op_type: "Slice"
  }
  node {
    output: "851"
    name: "Constant_403"
    op_type: "Constant"
    attribute {
      name: "value"
      t {
        dims: 1
        data_type: 7
      }
      type: TENSOR
    }
  }
  node {
    output: "852"
    name: "Constant_404"
    op_type: "Constant"
    attribute {
      name: "value"
      t {
        dims: 1
        data_type: 7
      }
      type: TENSOR
    }
  }
  node {
    output: "853"
    name: "Constant_405"
    op_type: "Constant"
    attribute {
      name: "value"
      t {
        dims: 1
        data_type: 7
      }
      type: TENSOR
    }
  }
  node {
    output: "854"
    name: "Constant_406"
    op_type: "Constant"
    attribute {
      name: "value"
      t {
        dims: 1
        data_type: 7
      }
      type: TENSOR
    }
  }
  node {
    input: "845"
    input: "852"
    input: "853"
    input: "851"
    input: "854"
    output: "855"
    name: "Slice_407"
    op_type: "Slice"
  }
  node {
    input: "855"
    input: "1635"
    input: "1636"
    output: "err_sm"
    name: "Clip_408"
    op_type: "Clip"
  }
  node {
    input: "855"
    output: "861"
    name: "Shape_409"
    op_type: "Shape"
  }
  node {
    input: "err_sm"
    input: "861"
    output: "862"
    name: "Expand_410"
    op_type: "Expand"
  }
  node {
    input: "845"
    output: "863"
    name: "Shape_411"
    op_type: "Shape"
  }
  node {
    output: "864"
    name: "Constant_412"
    op_type: "Constant"
    attribute {
      name: "value"
      t {
        data_type: 7
      }
      type: TENSOR
    }
  }
  node {
    input: "863"
    input: "864"
    output: "865"
    name: "Gather_413"
    op_type: "Gather"
    attribute {
      name: "axis"
      i: 0
      type: INT
    }
  }
  node {
    input: "865"
    output: "866"
    name: "Cast_414"
    op_type: "Cast"
    attribute {
      name: "to"
      i: 7
      type: INT
    }
  }
  node {
    output: "867"
    name: "Constant_415"
    op_type: "Constant"
    attribute {
      name: "value"
      t {
        data_type: 7
      }
      type: TENSOR
    }
  }
  node {
    output: "868"
    name: "Constant_416"
    op_type: "Constant"
    attribute {
      name: "value"
      t {
        data_type: 7
      }
      type: TENSOR
    }
  }
  node {
    input: "867"
    input: "866"
    input: "868"
    output: "869"
    name: "Range_417"
    op_type: "Range"
  }
  node {
    input: "845"
    output: "870"
    name: "Shape_418"
    op_type: "Shape"
  }
  node {
    output: "871"
    name: "Constant_419"
    op_type: "Constant"
    attribute {
      name: "value"
      t {
        data_type: 7
      }
      type: TENSOR
    }
  }
  node {
    input: "870"
    input: "871"
    output: "872"
    name: "Gather_420"
    op_type: "Gather"
    attribute {
      name: "axis"
      i: 0
      type: INT
    }
  }
  node {
    input: "872"
    output: "873"
    name: "Cast_421"
    op_type: "Cast"
    attribute {
      name: "to"
      i: 7
      type: INT
    }
  }
  node {
    output: "874"
    name: "Constant_422"
    op_type: "Constant"
    attribute {
      name: "value"
      t {
        data_type: 7
      }
      type: TENSOR
    }
  }
  node {
    output: "875"
    name: "Constant_423"
    op_type: "Constant"
    attribute {
      name: "value"
      t {
        data_type: 7
      }
      type: TENSOR
    }
  }
  node {
    input: "874"
    input: "873"
    input: "875"
    output: "876"
    name: "Range_424"
    op_type: "Range"
  }
  node {
    output: "877"
    name: "Constant_425"
    op_type: "Constant"
    attribute {
      name: "value"
      t {
        dims: 1
        data_type: 7
      }
      type: TENSOR
    }
  }
  node {
    output: "878"
    name: "Constant_426"
    op_type: "Constant"
    attribute {
      name: "value"
      t {
        dims: 1
        data_type: 7
      }
      type: TENSOR
    }
  }
  node {
    output: "879"
    name: "Constant_427"
    op_type: "Constant"
    attribute {
      name: "value"
      t {
        dims: 1
        data_type: 7
      }
      type: TENSOR
    }
  }
  node {
    output: "880"
    name: "Constant_428"
    op_type: "Constant"
    attribute {
      name: "value"
      t {
        dims: 1
        data_type: 7
      }
      type: TENSOR
    }
  }
  node {
    input: "876"
    input: "878"
    input: "879"
    input: "877"
    input: "880"
    output: "881"
    name: "Slice_429"
    op_type: "Slice"
  }
  node {
    output: "882"
    name: "Constant_430"
    op_type: "Constant"
    attribute {
      name: "value"
      t {
        dims: 2
        data_type: 7
      }
      type: TENSOR
    }
  }
  node {
    input: "869"
    input: "882"
    output: "883"
    name: "Reshape_431"
    op_type: "Reshape"
  }
  node {
    input: "883"
    input: "881"
    output: "884"
    name: "Add_432"
    op_type: "Add"
  }
  node {
    input: "884"
    output: "885"
    name: "Shape_433"
    op_type: "Shape"
  }
  node {
    input: "885"
    output: "886"
    name: "Shape_434"
    op_type: "Shape"
  }
  node {
    input: "886"
    output: "887"
    name: "ConstantOfShape_435"
    op_type: "ConstantOfShape"
    attribute {
      name: "value"
      t {
        dims: 1
        data_type: 7
        raw_data: "\001\000\000\000\000\000\000\000"
      }
      type: TENSOR
    }
  }
  node {
    output: "888"
    name: "Constant_436"
    op_type: "Constant"
    attribute {
      name: "value"
      t {
        data_type: 7
      }
      type: TENSOR
    }
  }
  node {
    input: "887"
    input: "888"
    output: "889"
    name: "Mul_437"
    op_type: "Mul"
  }
  node {
    input: "885"
    input: "889"
    output: "890"
    name: "Equal_438"
    op_type: "Equal"
  }
  node {
    input: "890"
    input: "887"
    input: "885"
    output: "891"
    name: "Where_439"
    op_type: "Where"
  }
  node {
    input: "883"
    input: "891"
    output: "892"
    name: "Expand_440"
    op_type: "Expand"
  }
  node {
    input: "892"
    output: "893"
    name: "Unsqueeze_441"
    op_type: "Unsqueeze"
    attribute {
      name: "axes"
      ints: -1
      type: INTS
    }
  }
  node {
    input: "885"
    output: "894"
    name: "Shape_442"
    op_type: "Shape"
  }
  node {
    input: "894"
    output: "895"
    name: "ConstantOfShape_443"
    op_type: "ConstantOfShape"
    attribute {
      name: "value"
      t {
        dims: 1
        data_type: 7
        raw_data: "\001\000\000\000\000\000\000\000"
      }
      type: TENSOR
    }
  }
  node {
    output: "896"
    name: "Constant_444"
    op_type: "Constant"
    attribute {
      name: "value"
      t {
        data_type: 7
      }
      type: TENSOR
    }
  }
  node {
    input: "895"
    input: "896"
    output: "897"
    name: "Mul_445"
    op_type: "Mul"
  }
  node {
    input: "885"
    input: "897"
    output: "898"
    name: "Equal_446"
    op_type: "Equal"
  }
  node {
    input: "898"
    input: "895"
    input: "885"
    output: "899"
    name: "Where_447"
    op_type: "Where"
  }
  node {
    input: "881"
    input: "899"
    output: "900"
    name: "Expand_448"
    op_type: "Expand"
  }
  node {
    input: "900"
    output: "901"
    name: "Unsqueeze_449"
    op_type: "Unsqueeze"
    attribute {
      name: "axes"
      ints: -1
      type: INTS
    }
  }
  node {
    input: "893"
    input: "901"
    output: "902"
    name: "Concat_450"
    op_type: "Concat"
    attribute {
      name: "axis"
      i: -1
      type: INT
    }
  }
  node {
    input: "845"
    output: "903"
    name: "Shape_451"
    op_type: "Shape"
  }
  node {
    output: "904"
    name: "Constant_452"
    op_type: "Constant"
    attribute {
      name: "value"
      t {
        dims: 1
        data_type: 7
      }
      type: TENSOR
    }
  }
  node {
    output: "905"
    name: "Constant_453"
    op_type: "Constant"
    attribute {
      name: "value"
      t {
        dims: 1
        data_type: 7
      }
      type: TENSOR
    }
  }
  node {
    output: "906"
    name: "Constant_454"
    op_type: "Constant"
    attribute {
      name: "value"
      t {
        dims: 1
        data_type: 7
      }
      type: TENSOR
    }
  }
  node {
    input: "903"
    input: "905"
    input: "906"
    input: "904"
    output: "907"
    name: "Slice_455"
    op_type: "Slice"
  }
  node {
    input: "885"
    input: "907"
    output: "908"
    name: "Concat_456"
    op_type: "Concat"
    attribute {
      name: "axis"
      i: 0
      type: INT
    }
  }
  node {
    input: "862"
    input: "908"
    output: "909"
    name: "Reshape_457"
    op_type: "Reshape"
  }
  node {
    input: "845"
    input: "902"
    input: "909"
    output: "910"
    name: "ScatterND_458"
    op_type: "ScatterND"
  }
  node {
    output: "911"
    name: "Constant_459"
    op_type: "Constant"
    attribute {
      name: "value"
      t {
        dims: 1
        data_type: 7
      }
      type: TENSOR
    }
  }
  node {
    output: "912"
    name: "Constant_460"
    op_type: "Constant"
    attribute {
      name: "value"
      t {
        dims: 1
        data_type: 7
      }
      type: TENSOR
    }
  }
  node {
    output: "913"
    name: "Constant_461"
    op_type: "Constant"
    attribute {
      name: "value"
      t {
        dims: 1
        data_type: 7
      }
      type: TENSOR
    }
  }
  node {
    output: "914"
    name: "Constant_462"
    op_type: "Constant"
    attribute {
      name: "value"
      t {
        dims: 1
        data_type: 7
      }
      type: TENSOR
    }
  }
  node {
    input: "910"
    input: "912"
    input: "913"
    input: "911"
    input: "914"
    output: "915"
    name: "Slice_463"
    op_type: "Slice"
  }
  node {
    input: "915"
    output: "916"
    name: "Relu_464"
    op_type: "Relu"
  }
  node {
    input: "src"
    output: "917"
    name: "Shape_465"
    op_type: "Shape"
  }
  node {
    output: "918"
    name: "Constant_466"
    op_type: "Constant"
    attribute {
      name: "value"
      t {
        data_type: 7
      }
      type: TENSOR
    }
  }
  node {
    input: "917"
    input: "918"
    output: "919"
    name: "Gather_467"
    op_type: "Gather"
    attribute {
      name: "axis"
      i: 0
      type: INT
    }
  }
  node {
    input: "src"
    output: "920"
    name: "Shape_468"
    op_type: "Shape"
  }
  node {
    output: "921"
    name: "Constant_469"
    op_type: "Constant"
    attribute {
      name: "value"
      t {
        data_type: 7
      }
      type: TENSOR
    }
  }
  node {
    input: "920"
    input: "921"
    output: "922"
    name: "Gather_470"
    op_type: "Gather"
    attribute {
      name: "axis"
      i: 0
      type: INT
    }
  }
  node {
    output: "923"
    name: "Constant_471"
    op_type: "Constant"
    attribute {
      name: "value"
      t {
        data_type: 7
      }
      type: TENSOR
    }
  }
  node {
    input: "919"
    input: "923"
    output: "924"
    name: "Div_472"
    op_type: "Div"
  }
  node {
    input: "924"
    output: "925"
    name: "Cast_473"
    op_type: "Cast"
    attribute {
      name: "to"
      i: 7
      type: INT
    }
  }
  node {
    input: "925"
    output: "926"
    name: "Cast_474"
    op_type: "Cast"
    attribute {
      name: "to"
      i: 7
      type: INT
    }
  }
  node {
    output: "927"
    name: "Constant_475"
    op_type: "Constant"
    attribute {
      name: "value"
      t {
        data_type: 7
      }
      type: TENSOR
    }
  }
  node {
    input: "922"
    input: "927"
    output: "928"
    name: "Div_476"
    op_type: "Div"
  }
  node {
    input: "928"
    output: "929"
    name: "Cast_477"
    op_type: "Cast"
    attribute {
      name: "to"
      i: 7
      type: INT
    }
  }
  node {
    input: "929"
    output: "930"
    name: "Cast_478"
    op_type: "Cast"
    attribute {
      name: "to"
      i: 7
      type: INT
    }
  }
  node {
    output: "931"
    name: "Constant_479"
    op_type: "Constant"
    attribute {
      name: "value"
      t {
        data_type: 7
      }
      type: TENSOR
    }
  }
  node {
    input: "919"
    input: "931"
    output: "932"
    name: "Div_480"
    op_type: "Div"
  }
  node {
    input: "932"
    output: "933"
    name: "Cast_481"
    op_type: "Cast"
    attribute {
      name: "to"
      i: 7
      type: INT
    }
  }
  node {
    input: "933"
    output: "934"
    name: "Cast_482"
    op_type: "Cast"
    attribute {
      name: "to"
      i: 7
      type: INT
    }
  }
  node {
    output: "935"
    name: "Constant_483"
    op_type: "Constant"
    attribute {
      name: "value"
      t {
        data_type: 7
      }
      type: TENSOR
    }
  }
  node {
    input: "922"
    input: "935"
    output: "936"
    name: "Div_484"
    op_type: "Div"
  }
  node {
    input: "936"
    output: "937"
    name: "Cast_485"
    op_type: "Cast"
    attribute {
      name: "to"
      i: 7
      type: INT
    }
  }
  node {
    input: "937"
    output: "938"
    name: "Cast_486"
    op_type: "Cast"
    attribute {
      name: "to"
      i: 7
      type: INT
    }
  }
  node {
    input: "src"
    input: "bgr"
    output: "939"
    name: "Concat_487"
    op_type: "Concat"
    attribute {
      name: "axis"
      i: 1
      type: INT
    }
  }
  node {
    input: "934"
    output: "940"
    name: "Unsqueeze_488"
    op_type: "Unsqueeze"
    attribute {
      name: "axes"
      ints: 0
      type: INTS
    }
  }
  node {
    input: "938"
    output: "941"
    name: "Unsqueeze_489"
    op_type: "Unsqueeze"
    attribute {
      name: "axes"
      ints: 0
      type: INTS
    }
  }
  node {
    input: "940"
    input: "941"
    output: "942"
    name: "Concat_490"
    op_type: "Concat"
    attribute {
      name: "axis"
      i: 0
      type: INT
    }
  }
  node {
    input: "err_sm"
    output: "943"
    name: "Shape_491"
    op_type: "Shape"
  }
  node {
    output: "944"
    name: "Constant_492"
    op_type: "Constant"
    attribute {
      name: "value"
      t {
        dims: 1
        data_type: 7
      }
      type: TENSOR
    }
  }
  node {
    output: "945"
    name: "Constant_493"
    op_type: "Constant"
    attribute {
      name: "value"
      t {
        dims: 1
        data_type: 7
      }
      type: TENSOR
    }
  }
  node {
    output: "946"
    name: "Constant_494"
    op_type: "Constant"
    attribute {
      name: "value"
      t {
        dims: 1
        data_type: 7
      }
      type: TENSOR
    }
  }
  node {
    input: "943"
    input: "945"
    input: "946"
    input: "944"
    output: "947"
    name: "Slice_495"
    op_type: "Slice"
  }
  node {
    input: "942"
    output: "948"
    name: "Cast_496"
    op_type: "Cast"
    attribute {
      name: "to"
      i: 7
      type: INT
    }
  }
  node {
    input: "947"
    input: "948"
    output: "949"
    name: "Concat_497"
    op_type: "Concat"
    attribute {
      name: "axis"
      i: 0
      type: INT
    }
  }
  node {
    output: "950"
    name: "Constant_498"
    op_type: "Constant"
    attribute {
      name: "value"
      t {
        dims: 0
        data_type: 1
      }
      type: TENSOR
    }
  }
  node {
    output: "951"
    name: "Constant_499"
    op_type: "Constant"
    attribute {
      name: "value"
      t {
        dims: 0
        data_type: 1
      }
      type: TENSOR
    }
  }
  node {
    input: "err_sm"
    input: "950"
    input: "951"
    input: "949"
    output: "952"
    name: "Resize_500"
    op_type: "Resize"
    attribute {
      name: "coordinate_transformation_mode"
      s: "pytorch_half_pixel"
      type: STRING
    }
    attribute {
      name: "cubic_coeff_a"
      f: -0.75
      type: FLOAT
    }
    attribute {
      name: "mode"
      s: "linear"
      type: STRING
    }
    attribute {
      name: "nearest_mode"
      s: "floor"
      type: STRING
    }
  }
  node {
    input: "952"
    output: "953"
    name: "Shape_501"
    op_type: "Shape"
  }
  node {
    output: "954"
    name: "Constant_502"
    op_type: "Constant"
    attribute {
      name: "value"
      t {
        data_type: 7
      }
      type: TENSOR
    }
  }
  node {
    input: "953"
    input: "954"
    output: "955"
    name: "Gather_503"
    op_type: "Gather"
    attribute {
      name: "axis"
      i: 0
      type: INT
    }
  }
  node {
    input: "952"
    output: "956"
    name: "Shape_504"
    op_type: "Shape"
  }
  node {
    output: "957"
    name: "Constant_505"
    op_type: "Constant"
    attribute {
      name: "value"
      t {
        data_type: 7
      }
      type: TENSOR
    }
  }
  node {
    input: "956"
    input: "957"
    output: "958"
    name: "Gather_506"
    op_type: "Gather"
    attribute {
      name: "axis"
      i: 0
      type: INT
    }
  }
  node {
    input: "952"
    output: "959"
    name: "Shape_507"
    op_type: "Shape"
  }
  node {
    output: "960"
    name: "Constant_508"
    op_type: "Constant"
    attribute {
      name: "value"
      t {
        data_type: 7
      }
      type: TENSOR
    }
  }
  node {
    input: "959"
    input: "960"
    output: "961"
    name: "Gather_509"
    op_type: "Gather"
    attribute {
      name: "axis"
      i: 0
      type: INT
    }
  }
  node {
    input: "955"
    output: "963"
    name: "Unsqueeze_510"
    op_type: "Unsqueeze"
    attribute {
      name: "axes"
      ints: 0
      type: INTS
    }
  }
  node {
    input: "963"
    input: "1637"
    output: "965"
    name: "Concat_511"
    op_type: "Concat"
    attribute {
      name: "axis"
      i: 0
      type: INT
    }
  }
  node {
    input: "952"
    input: "965"
    output: "966"
    name: "Reshape_512"
    op_type: "Reshape"
  }
  node {
    input: "966"
    input: "1638"
    output: "970"
    output: "971"
    name: "TopK_513"
    op_type: "TopK"
    attribute {
      name: "axis"
      i: 1
      type: INT
    }
    attribute {
      name: "largest"
      i: 1
      type: INT
    }
    attribute {
      name: "sorted"
      i: 0
      type: INT
    }
  }
  node {
    input: "966"
    output: "972"
    name: "Shape_514"
    op_type: "Shape"
  }
  node {
    input: "972"
    output: "973"
    name: "ConstantOfShape_515"
    op_type: "ConstantOfShape"
    attribute {
      name: "value"
      t {
        dims: 1
        data_type: 1
        raw_data: "\000\000\000\000"
      }
      type: TENSOR
    }
  }
  node {
    input: "971"
    output: "976"
    name: "Shape_516"
    op_type: "Shape"
  }
  node {
    input: "1639"
    input: "976"
    output: "977"
    name: "Expand_517"
    op_type: "Expand"
  }
  node {
    input: "973"
    input: "971"
    input: "977"
    output: "978"
    name: "ScatterElements_518"
    op_type: "ScatterElements"
    attribute {
      name: "axis"
      i: 1
      type: INT
    }
  }
  node {
    output: "979"
    name: "Constant_519"
    op_type: "Constant"
    attribute {
      name: "value"
      t {
        data_type: 1
      }
      type: TENSOR
    }
  }
  node {
    input: "966"
    input: "979"
    output: "980"
    name: "Greater_520"
    op_type: "Greater"
  }
  node {
    input: "980"
    output: "981"
    name: "Cast_521"
    op_type: "Cast"
    attribute {
      name: "to"
      i: 1
      type: INT
    }
  }
  node {
    input: "978"
    input: "981"
    output: "982"
    name: "Mul_522"
    op_type: "Mul"
  }
  node {
    input: "955"
    output: "984"
    name: "Unsqueeze_523"
    op_type: "Unsqueeze"
    attribute {
      name: "axes"
      ints: 0
      type: INTS
    }
  }
  node {
    input: "958"
    output: "986"
    name: "Unsqueeze_524"
    op_type: "Unsqueeze"
    attribute {
      name: "axes"
      ints: 0
      type: INTS
    }
  }
  node {
    input: "961"
    output: "987"
    name: "Unsqueeze_525"
    op_type: "Unsqueeze"
    attribute {
      name: "axes"
      ints: 0
      type: INTS
    }
  }
  node {
    input: "984"
    input: "1640"
    input: "986"
    input: "987"
    output: "988"
    name: "Concat_526"
    op_type: "Concat"
    attribute {
      name: "axis"
      i: 0
      type: INT
    }
  }
  node {
    input: "982"
    input: "988"
    output: "ref_sm"
    name: "Reshape_527"
    op_type: "Reshape"
  }
  node {
    output: "990"
    name: "Constant_528"
    op_type: "Constant"
    attribute {
      name: "value"
      t {
        dims: 1
        data_type: 7
      }
      type: TENSOR
    }
  }
  node {
    input: "ref_sm"
    output: "991"
    name: "Shape_529"
    op_type: "Shape"
  }
  node {
    input: "991"
    input: "990"
    output: "992"
    name: "Gather_530"
    op_type: "Gather"
    attribute {
      name: "axis"
      i: 0
      type: INT
    }
  }
  node {
    output: "993"
    name: "Constant_531"
    op_type: "Constant"
    attribute {
      name: "value"
      t {
        dims: 1
        data_type: 7
      }
      type: TENSOR
    }
  }
  node {
    input: "992"
    input: "993"
    output: "994"
    name: "Equal_532"
    op_type: "Equal"
  }
  node {
    input: "994"
    output: "995"
    name: "If_533"
    op_type: "If"
    attribute {
      name: "then_branch"
      g {
        node {
          input: "ref_sm"
          output: "996"
          name: "Squeeze_534"
          op_type: "Squeeze"
          attribute {
            name: "axes"
            ints: 1
            type: INTS
          }
        }
        name: "torch-jit-export1"
        output {
          name: "996"
          type {
            tensor_type {
              elem_type: 1
              shape {
                dim {
                  dim_param: "batch"
                }
                dim {
                  dim_param: "height"
                }
                dim {
                  dim_param: "width"
                }
              }
            }
          }
        }
      }
      type: GRAPH
    }
    attribute {
      name: "else_branch"
      g {
        node {
          input: "ref_sm"
          output: "997"
          name: "Identity_535"
          op_type: "Identity"
        }
        name: "torch-jit-export2"
        output {
          name: "997"
          type {
            tensor_type {
              elem_type: 1
              shape {
                dim {
                  dim_param: "batch"
                }
                dim {
                  dim_param: "Reshaperef_sm_dim_1"
                }
                dim {
                  dim_param: "height"
                }
                dim {
                  dim_param: "width"
                }
              }
            }
          }
        }
      }
      type: GRAPH
    }
  }
  node {
    input: "995"
    output: "998"
    name: "NonZero_536"
    op_type: "NonZero"
  }
  node {
    input: "998"
    output: "999"
    name: "Transpose_537"
    op_type: "Transpose"
    attribute {
      name: "perm"
      ints: 1
      ints: 0
      type: INTS
    }
  }
  node {
    output: "1000"
    name: "Constant_538"
    op_type: "Constant"
    attribute {
      name: "value"
      t {
        data_type: 7
      }
      type: TENSOR
    }
  }
  node {
    input: "999"
    input: "1000"
    output: "1001"
    name: "Gather_539"
    op_type: "Gather"
    attribute {
      name: "axis"
      i: 1
      type: INT
    }
  }
  node {
    output: "1002"
    name: "Constant_540"
    op_type: "Constant"
    attribute {
      name: "value"
      t {
        data_type: 7
      }
      type: TENSOR
    }
  }
  node {
    input: "999"
    input: "1002"
    output: "1003"
    name: "Gather_541"
    op_type: "Gather"
    attribute {
      name: "axis"
      i: 1
      type: INT
    }
  }
  node {
    output: "1004"
    name: "Constant_542"
    op_type: "Constant"
    attribute {
      name: "value"
      t {
        data_type: 7
      }
      type: TENSOR
    }
  }
  node {
    input: "999"
    input: "1004"
    output: "1005"
    name: "Gather_543"
    op_type: "Gather"
    attribute {
      name: "axis"
      i: 1
      type: INT
    }
  }
  node {
    input: "916"
    input: "pha_sm"
    input: "850"
    output: "1006"
    name: "Concat_544"
    op_type: "Concat"
    attribute {
      name: "axis"
      i: 1
      type: INT
    }
  }
  node {
    input: "926"
    output: "1007"
    name: "Unsqueeze_545"
    op_type: "Unsqueeze"
    attribute {
      name: "axes"
      ints: 0
      type: INTS
    }
  }
  node {
    input: "930"
    output: "1008"
    name: "Unsqueeze_546"
    op_type: "Unsqueeze"
    attribute {
      name: "axes"
      ints: 0
      type: INTS
    }
  }
  node {
    input: "1007"
    input: "1008"
    output: "1009"
    name: "Concat_547"
    op_type: "Concat"
    attribute {
      name: "axis"
      i: 0
      type: INT
    }
  }
  node {
    input: "1006"
    output: "1010"
    name: "Shape_548"
    op_type: "Shape"
  }
  node {
    output: "1011"
    name: "Constant_549"
    op_type: "Constant"
    attribute {
      name: "value"
      t {
        dims: 1
        data_type: 7
      }
      type: TENSOR
    }
  }
  node {
    output: "1012"
    name: "Constant_550"
    op_type: "Constant"
    attribute {
      name: "value"
      t {
        dims: 1
        data_type: 7
      }
      type: TENSOR
    }
  }
  node {
    output: "1013"
    name: "Constant_551"
    op_type: "Constant"
    attribute {
      name: "value"
      t {
        dims: 1
        data_type: 7
      }
      type: TENSOR
    }
  }
  node {
    input: "1010"
    input: "1012"
    input: "1013"
    input: "1011"
    output: "1014"
    name: "Slice_552"
    op_type: "Slice"
  }
  node {
    input: "1009"
    output: "1015"
    name: "Cast_553"
    op_type: "Cast"
    attribute {
      name: "to"
      i: 7
      type: INT
    }
  }
  node {
    input: "1014"
    input: "1015"
    output: "1016"
    name: "Concat_554"
    op_type: "Concat"
    attribute {
      name: "axis"
      i: 0
      type: INT
    }
  }
  node {
    output: "1017"
    name: "Constant_555"
    op_type: "Constant"
    attribute {
      name: "value"
      t {
        dims: 0
        data_type: 1
      }
      type: TENSOR
    }
  }
  node {
    output: "1018"
    name: "Constant_556"
    op_type: "Constant"
    attribute {
      name: "value"
      t {
        dims: 0
        data_type: 1
      }
      type: TENSOR
    }
  }
  node {
    input: "1006"
    input: "1017"
    input: "1018"
    input: "1016"
    output: "1019"
    name: "Resize_557"
    op_type: "Resize"
    attribute {
      name: "coordinate_transformation_mode"
      s: "pytorch_half_pixel"
      type: STRING
    }
    attribute {
      name: "cubic_coeff_a"
      f: -0.75
      type: FLOAT
    }
    attribute {
      name: "mode"
      s: "linear"
      type: STRING
    }
    attribute {
      name: "nearest_mode"
      s: "floor"
      type: STRING
    }
  }
  node {
    input: "1644"
    output: "1029"
    name: "ConstantOfShape_558"
    op_type: "ConstantOfShape"
    attribute {
      name: "value"
      t {
        dims: 1
        data_type: 7
        raw_data: "\000\000\000\000\000\000\000\000"
      }
      type: TENSOR
    }
  }
  node {
    input: "1645"
    input: "1029"
    output: "1030"
    name: "Concat_559"
    op_type: "Concat"
    attribute {
      name: "axis"
      i: 0
      type: INT
    }
  }
  node {
    output: "1031"
    name: "Constant_560"
    op_type: "Constant"
    attribute {
      name: "value"
      t {
        dims: 2
        data_type: 7
      }
      type: TENSOR
    }
  }
  node {
    input: "1030"
    input: "1031"
    output: "1032"
    name: "Reshape_561"
    op_type: "Reshape"
  }
  node {
    output: "1033"
    name: "Constant_562"
    op_type: "Constant"
    attribute {
      name: "value"
      t {
        dims: 1
        data_type: 7
      }
      type: TENSOR
    }
  }
  node {
    output: "1034"
    name: "Constant_563"
    op_type: "Constant"
    attribute {
      name: "value"
      t {
        dims: 1
        data_type: 7
      }
      type: TENSOR
    }
  }
  node {
    output: "1035"
    name: "Constant_564"
    op_type: "Constant"
    attribute {
      name: "value"
      t {
        dims: 1
        data_type: 7
      }
      type: TENSOR
    }
  }
  node {
    output: "1036"
    name: "Constant_565"
    op_type: "Constant"
    attribute {
      name: "value"
      t {
        dims: 1
        data_type: 7
      }
      type: TENSOR
    }
  }
  node {
    input: "1032"
    input: "1034"
    input: "1035"
    input: "1033"
    input: "1036"
    output: "1037"
    name: "Slice_566"
    op_type: "Slice"
  }
  node {
    input: "1037"
    output: "1038"
    name: "Transpose_567"
    op_type: "Transpose"
    attribute {
      name: "perm"
      ints: 1
      ints: 0
      type: INTS
    }
  }
  node {
    output: "1039"
    name: "Constant_568"
    op_type: "Constant"
    attribute {
      name: "value"
      t {
        dims: 1
        data_type: 7
      }
      type: TENSOR
    }
  }
  node {
    input: "1038"
    input: "1039"
    output: "1040"
    name: "Reshape_569"
    op_type: "Reshape"
  }
  node {
    input: "1040"
    output: "1041"
    name: "Cast_570"
    op_type: "Cast"
    attribute {
      name: "to"
      i: 7
      type: INT
    }
  }
  node {
    output: "1042"
    name: "Constant_571"
    op_type: "Constant"
    attribute {
      name: "value"
      t {
        data_type: 1
      }
      type: TENSOR
    }
  }
  node {
    input: "1019"
    input: "1041"
    input: "1042"
    output: "1043"
    name: "Pad_572"
    op_type: "Pad"
    attribute {
      name: "mode"
      s: "constant"
      type: STRING
    }
  }
  node {
    input: "1001"
    output: "1044"
    name: "Cast_573"
    op_type: "Cast"
    attribute {
      name: "to"
      i: 1
      type: INT
    }
  }
  node {
    input: "1003"
    output: "1045"
    name: "Cast_574"
    op_type: "Cast"
    attribute {
      name: "to"
      i: 1
      type: INT
    }
  }
  node {
    input: "1005"
    output: "1046"
    name: "Cast_575"
    op_type: "Cast"
    attribute {
      name: "to"
      i: 1
      type: INT
    }
  }
  node {
    output: "1047"
    name: "Constant_576"
    op_type: "Constant"
    attribute {
      name: "value"
      t {
        data_type: 1
      }
      type: TENSOR
    }
  }
  node {
    input: "1046"
    input: "1047"
    output: "1048"
    name: "Mul_577"
    op_type: "Mul"
  }
  node {
    output: "1049"
    name: "Constant_578"
    op_type: "Constant"
    attribute {
      name: "value"
      t {
        data_type: 1
      }
      type: TENSOR
    }
  }
  node {
    input: "1048"
    input: "1049"
    output: "1050"
    name: "Sub_579"
    op_type: "Sub"
  }
  node {
    output: "1051"
    name: "Constant_580"
    op_type: "Constant"
    attribute {
      name: "value"
      t {
        data_type: 1
      }
      type: TENSOR
    }
  }
  node {
    input: "1045"
    input: "1051"
    output: "1052"
    name: "Mul_581"
    op_type: "Mul"
  }
  node {
    output: "1053"
    name: "Constant_582"
    op_type: "Constant"
    attribute {
      name: "value"
      t {
        data_type: 1
      }
      type: TENSOR
    }
  }
  node {
    input: "1052"
    input: "1053"
    output: "1054"
    name: "Sub_583"
    op_type: "Sub"
  }
  node {
    output: "1055"
    name: "Constant_584"
    op_type: "Constant"
    attribute {
      name: "value"
      t {
        data_type: 1
      }
      type: TENSOR
    }
  }
  node {
    input: "1046"
    input: "1055"
    output: "1056"
    name: "Mul_585"
    op_type: "Mul"
  }
  node {
    output: "1057"
    name: "Constant_586"
    op_type: "Constant"
    attribute {
      name: "value"
      t {
        data_type: 1
      }
      type: TENSOR
    }
  }
  node {
    input: "1056"
    input: "1057"
    output: "1058"
    name: "Add_587"
    op_type: "Add"
  }
  node {
    output: "1059"
    name: "Constant_588"
    op_type: "Constant"
    attribute {
      name: "value"
      t {
        data_type: 1
      }
      type: TENSOR
    }
  }
  node {
    input: "1058"
    input: "1059"
    output: "1060"
    name: "Add_589"
    op_type: "Add"
  }
  node {
    output: "1061"
    name: "Constant_590"
    op_type: "Constant"
    attribute {
      name: "value"
      t {
        data_type: 1
      }
      type: TENSOR
    }
  }
  node {
    input: "1060"
    input: "1061"
    output: "1062"
    name: "Sub_591"
    op_type: "Sub"
  }
  node {
    output: "1063"
    name: "Constant_592"
    op_type: "Constant"
    attribute {
      name: "value"
      t {
        data_type: 1
      }
      type: TENSOR
    }
  }
  node {
    input: "1045"
    input: "1063"
    output: "1064"
    name: "Mul_593"
    op_type: "Mul"
  }
  node {
    output: "1065"
    name: "Constant_594"
    op_type: "Constant"
    attribute {
      name: "value"
      t {
        data_type: 1
      }
      type: TENSOR
    }
  }
  node {
    input: "1064"
    input: "1065"
    output: "1066"
    name: "Add_595"
    op_type: "Add"
  }
  node {
    output: "1067"
    name: "Constant_596"
    op_type: "Constant"
    attribute {
      name: "value"
      t {
        data_type: 1
      }
      type: TENSOR
    }
  }
  node {
    input: "1066"
    input: "1067"
    output: "1068"
    name: "Add_597"
    op_type: "Add"
  }
  node {
    output: "1069"
    name: "Constant_598"
    op_type: "Constant"
    attribute {
      name: "value"
      t {
        data_type: 1
      }
      type: TENSOR
    }
  }
  node {
    input: "1068"
    input: "1069"
    output: "1070"
    name: "Sub_599"
    op_type: "Sub"
  }
  node {
    input: "1044"
    output: "1071"
    name: "Unsqueeze_600"
    op_type: "Unsqueeze"
    attribute {
      name: "axes"
      ints: 1
      type: INTS
    }
  }
  node {
    input: "1050"
    output: "1072"
    name: "Unsqueeze_601"
    op_type: "Unsqueeze"
    attribute {
      name: "axes"
      ints: 1
      type: INTS
    }
  }
  node {
    input: "1054"
    output: "1073"
    name: "Unsqueeze_602"
    op_type: "Unsqueeze"
    attribute {
      name: "axes"
      ints: 1
      type: INTS
    }
  }
  node {
    input: "1062"
    output: "1074"
    name: "Unsqueeze_603"
    op_type: "Unsqueeze"
    attribute {
      name: "axes"
      ints: 1
      type: INTS
    }
  }
  node {
    input: "1070"
    output: "1075"
    name: "Unsqueeze_604"
    op_type: "Unsqueeze"
    attribute {
      name: "axes"
      ints: 1
      type: INTS
    }
  }
  node {
    input: "1071"
    input: "1072"
    input: "1073"
    input: "1074"
    input: "1075"
    output: "1076"
    name: "Concat_605"
    op_type: "Concat"
    attribute {
      name: "axis"
      i: 1
      type: INT
    }
  }
  node {
    output: "1077"
    name: "Constant_606"
    op_type: "Constant"
    attribute {
      name: "value"
      t {
        dims: 1
        data_type: 7
      }
      type: TENSOR
    }
  }
  node {
    input: "1076"
    input: "1077"
    output: "1078"
    name: "Gather_607"
    op_type: "Gather"
    attribute {
      name: "axis"
      i: 1
      type: INT
    }
  }
  node {
    input: "1078"
    output: "1079"
    name: "Squeeze_608"
    op_type: "Squeeze"
    attribute {
      name: "axes"
      ints: 1
      type: INTS
    }
  }
  node {
    input: "1079"
    output: "1080"
    name: "Cast_609"
    op_type: "Cast"
    attribute {
      name: "to"
      i: 7
      type: INT
    }
  }
  node {
    output: "1081"
    name: "Constant_610"
    op_type: "Constant"
    attribute {
      name: "value"
      t {
        dims: 4
        data_type: 7
      }
      type: TENSOR
    }
  }
  node {
    input: "1076"
    input: "1081"
    output: "1082"
    name: "Gather_611"
    op_type: "Gather"
    attribute {
      name: "axis"
      i: 1
      type: INT
    }
  }
  node {
    input: "1043"
    input: "1082"
    input: "1080"
    output: "1083"
    name: "RoiAlign_612"
    op_type: "RoiAlign"
    attribute {
      name: "output_height"
      i: 8
      type: INT
    }
    attribute {
      name: "output_width"
      i: 8
      type: INT
    }
    attribute {
      name: "sampling_ratio"
      i: 1
      type: INT
    }
    attribute {
      name: "spatial_scale"
      f: 1.0
      type: FLOAT
    }
  }
  node {
    input: "926"
    output: "1084"
    name: "Unsqueeze_613"
    op_type: "Unsqueeze"
    attribute {
      name: "axes"
      ints: 0
      type: INTS
    }
  }
  node {
    input: "930"
    output: "1085"
    name: "Unsqueeze_614"
    op_type: "Unsqueeze"
    attribute {
      name: "axes"
      ints: 0
      type: INTS
    }
  }
  node {
    input: "1084"
    input: "1085"
    output: "1086"
    name: "Concat_615"
    op_type: "Concat"
    attribute {
      name: "axis"
      i: 0
      type: INT
    }
  }
  node {
    input: "939"
    output: "1087"
    name: "Shape_616"
    op_type: "Shape"
  }
  node {
    output: "1088"
    name: "Constant_617"
    op_type: "Constant"
    attribute {
      name: "value"
      t {
        dims: 1
        data_type: 7
      }
      type: TENSOR
    }
  }
  node {
    output: "1089"
    name: "Constant_618"
    op_type: "Constant"
    attribute {
      name: "value"
      t {
        dims: 1
        data_type: 7
      }
      type: TENSOR
    }
  }
  node {
    output: "1090"
    name: "Constant_619"
    op_type: "Constant"
    attribute {
      name: "value"
      t {
        dims: 1
        data_type: 7
      }
      type: TENSOR
    }
  }
  node {
    input: "1087"
    input: "1089"
    input: "1090"
    input: "1088"
    output: "1091"
    name: "Slice_620"
    op_type: "Slice"
  }
  node {
    input: "1086"
    output: "1092"
    name: "Cast_621"
    op_type: "Cast"
    attribute {
      name: "to"
      i: 7
      type: INT
    }
  }
  node {
    input: "1091"
    input: "1092"
    output: "1093"
    name: "Concat_622"
    op_type: "Concat"
    attribute {
      name: "axis"
      i: 0
      type: INT
    }
  }
  node {
    output: "1094"
    name: "Constant_623"
    op_type: "Constant"
    attribute {
      name: "value"
      t {
        dims: 0
        data_type: 1
      }
      type: TENSOR
    }
  }
  node {
    output: "1095"
    name: "Constant_624"
    op_type: "Constant"
    attribute {
      name: "value"
      t {
        dims: 0
        data_type: 1
      }
      type: TENSOR
    }
  }
  node {
    input: "939"
    input: "1094"
    input: "1095"
    input: "1093"
    output: "1096"
    name: "Resize_625"
    op_type: "Resize"
    attribute {
      name: "coordinate_transformation_mode"
      s: "pytorch_half_pixel"
      type: STRING
    }
    attribute {
      name: "cubic_coeff_a"
      f: -0.75
      type: FLOAT
    }
    attribute {
      name: "mode"
      s: "linear"
      type: STRING
    }
    attribute {
      name: "nearest_mode"
      s: "floor"
      type: STRING
    }
  }
  node {
    input: "1649"
    output: "1106"
    name: "ConstantOfShape_626"
    op_type: "ConstantOfShape"
    attribute {
      name: "value"
      t {
        dims: 1
        data_type: 7
        raw_data: "\000\000\000\000\000\000\000\000"
      }
      type: TENSOR
    }
  }
  node {
    input: "1650"
    input: "1106"
    output: "1107"
    name: "Concat_627"
    op_type: "Concat"
    attribute {
      name: "axis"
      i: 0
      type: INT
    }
  }
  node {
    output: "1108"
    name: "Constant_628"
    op_type: "Constant"
    attribute {
      name: "value"
      t {
        dims: 2
        data_type: 7
      }
      type: TENSOR
    }
  }
  node {
    input: "1107"
    input: "1108"
    output: "1109"
    name: "Reshape_629"
    op_type: "Reshape"
  }
  node {
    output: "1110"
    name: "Constant_630"
    op_type: "Constant"
    attribute {
      name: "value"
      t {
        dims: 1
        data_type: 7
      }
      type: TENSOR
    }
  }
  node {
    output: "1111"
    name: "Constant_631"
    op_type: "Constant"
    attribute {
      name: "value"
      t {
        dims: 1
        data_type: 7
      }
      type: TENSOR
    }
  }
  node {
    output: "1112"
    name: "Constant_632"
    op_type: "Constant"
    attribute {
      name: "value"
      t {
        dims: 1
        data_type: 7
      }
      type: TENSOR
    }
  }
  node {
    output: "1113"
    name: "Constant_633"
    op_type: "Constant"
    attribute {
      name: "value"
      t {
        dims: 1
        data_type: 7
      }
      type: TENSOR
    }
  }
  node {
    input: "1109"
    input: "1111"
    input: "1112"
    input: "1110"
    input: "1113"
    output: "1114"
    name: "Slice_634"
    op_type: "Slice"
  }
  node {
    input: "1114"
    output: "1115"
    name: "Transpose_635"
    op_type: "Transpose"
    attribute {
      name: "perm"
      ints: 1
      ints: 0
      type: INTS
    }
  }
  node {
    output: "1116"
    name: "Constant_636"
    op_type: "Constant"
    attribute {
      name: "value"
      t {
        dims: 1
        data_type: 7
      }
      type: TENSOR
    }
  }
  node {
    input: "1115"
    input: "1116"
    output: "1117"
    name: "Reshape_637"
    op_type: "Reshape"
  }
  node {
    input: "1117"
    output: "1118"
    name: "Cast_638"
    op_type: "Cast"
    attribute {
      name: "to"
      i: 7
      type: INT
    }
  }
  node {
    output: "1119"
    name: "Constant_639"
    op_type: "Constant"
    attribute {
      name: "value"
      t {
        data_type: 1
      }
      type: TENSOR
    }
  }
  node {
    input: "1096"
    input: "1118"
    input: "1119"
    output: "1120"
    name: "Pad_640"
    op_type: "Pad"
    attribute {
      name: "mode"
      s: "constant"
      type: STRING
    }
  }
  node {
    input: "1001"
    output: "1121"
    name: "Cast_641"
    op_type: "Cast"
    attribute {
      name: "to"
      i: 1
      type: INT
    }
  }
  node {
    input: "1003"
    output: "1122"
    name: "Cast_642"
    op_type: "Cast"
    attribute {
      name: "to"
      i: 1
      type: INT
    }
  }
  node {
    input: "1005"
    output: "1123"
    name: "Cast_643"
    op_type: "Cast"
    attribute {
      name: "to"
      i: 1
      type: INT
    }
  }
  node {
    output: "1124"
    name: "Constant_644"
    op_type: "Constant"
    attribute {
      name: "value"
      t {
        data_type: 1
      }
      type: TENSOR
    }
  }
  node {
    input: "1123"
    input: "1124"
    output: "1125"
    name: "Mul_645"
    op_type: "Mul"
  }
  node {
    output: "1126"
    name: "Constant_646"
    op_type: "Constant"
    attribute {
      name: "value"
      t {
        data_type: 1
      }
      type: TENSOR
    }
  }
  node {
    input: "1125"
    input: "1126"
    output: "1127"
    name: "Sub_647"
    op_type: "Sub"
  }
  node {
    output: "1128"
    name: "Constant_648"
    op_type: "Constant"
    attribute {
      name: "value"
      t {
        data_type: 1
      }
      type: TENSOR
    }
  }
  node {
    input: "1122"
    input: "1128"
    output: "1129"
    name: "Mul_649"
    op_type: "Mul"
  }
  node {
    output: "1130"
    name: "Constant_650"
    op_type: "Constant"
    attribute {
      name: "value"
      t {
        data_type: 1
      }
      type: TENSOR
    }
  }
  node {
    input: "1129"
    input: "1130"
    output: "1131"
    name: "Sub_651"
    op_type: "Sub"
  }
  node {
    output: "1132"
    name: "Constant_652"
    op_type: "Constant"
    attribute {
      name: "value"
      t {
        data_type: 1
      }
      type: TENSOR
    }
  }
  node {
    input: "1123"
    input: "1132"
    output: "1133"
    name: "Mul_653"
    op_type: "Mul"
  }
  node {
    output: "1134"
    name: "Constant_654"
    op_type: "Constant"
    attribute {
      name: "value"
      t {
        data_type: 1
      }
      type: TENSOR
    }
  }
  node {
    input: "1133"
    input: "1134"
    output: "1135"
    name: "Add_655"
    op_type: "Add"
  }
  node {
    output: "1136"
    name: "Constant_656"
    op_type: "Constant"
    attribute {
      name: "value"
      t {
        data_type: 1
      }
      type: TENSOR
    }
  }
  node {
    input: "1135"
    input: "1136"
    output: "1137"
    name: "Add_657"
    op_type: "Add"
  }
  node {
    output: "1138"
    name: "Constant_658"
    op_type: "Constant"
    attribute {
      name: "value"
      t {
        data_type: 1
      }
      type: TENSOR
    }
  }
  node {
    input: "1137"
    input: "1138"
    output: "1139"
    name: "Sub_659"
    op_type: "Sub"
  }
  node {
    output: "1140"
    name: "Constant_660"
    op_type: "Constant"
    attribute {
      name: "value"
      t {
        data_type: 1
      }
      type: TENSOR
    }
  }
  node {
    input: "1122"
    input: "1140"
    output: "1141"
    name: "Mul_661"
    op_type: "Mul"
  }
  node {
    output: "1142"
    name: "Constant_662"
    op_type: "Constant"
    attribute {
      name: "value"
      t {
        data_type: 1
      }
      type: TENSOR
    }
  }
  node {
    input: "1141"
    input: "1142"
    output: "1143"
    name: "Add_663"
    op_type: "Add"
  }
  node {
    output: "1144"
    name: "Constant_664"
    op_type: "Constant"
    attribute {
      name: "value"
      t {
        data_type: 1
      }
      type: TENSOR
    }
  }
  node {
    input: "1143"
    input: "1144"
    output: "1145"
    name: "Add_665"
    op_type: "Add"
  }
  node {
    output: "1146"
    name: "Constant_666"
    op_type: "Constant"
    attribute {
      name: "value"
      t {
        data_type: 1
      }
      type: TENSOR
    }
  }
  node {
    input: "1145"
    input: "1146"
    output: "1147"
    name: "Sub_667"
    op_type: "Sub"
  }
  node {
    input: "1121"
    output: "1148"
    name: "Unsqueeze_668"
    op_type: "Unsqueeze"
    attribute {
      name: "axes"
      ints: 1
      type: INTS
    }
  }
  node {
    input: "1127"
    output: "1149"
    name: "Unsqueeze_669"
    op_type: "Unsqueeze"
    attribute {
      name: "axes"
      ints: 1
      type: INTS
    }
  }
  node {
    input: "1131"
    output: "1150"
    name: "Unsqueeze_670"
    op_type: "Unsqueeze"
    attribute {
      name: "axes"
      ints: 1
      type: INTS
    }
  }
  node {
    input: "1139"
    output: "1151"
    name: "Unsqueeze_671"
    op_type: "Unsqueeze"
    attribute {
      name: "axes"
      ints: 1
      type: INTS
    }
  }
  node {
    input: "1147"
    output: "1152"
    name: "Unsqueeze_672"
    op_type: "Unsqueeze"
    attribute {
      name: "axes"
      ints: 1
      type: INTS
    }
  }
  node {
    input: "1148"
    input: "1149"
    input: "1150"
    input: "1151"
    input: "1152"
    output: "1153"
    name: "Concat_673"
    op_type: "Concat"
    attribute {
      name: "axis"
      i: 1
      type: INT
    }
  }
  node {
    output: "1154"
    name: "Constant_674"
    op_type: "Constant"
    attribute {
      name: "value"
      t {
        dims: 1
        data_type: 7
      }
      type: TENSOR
    }
  }
  node {
    input: "1153"
    input: "1154"
    output: "1155"
    name: "Gather_675"
    op_type: "Gather"
    attribute {
      name: "axis"
      i: 1
      type: INT
    }
  }
  node {
    input: "1155"
    output: "1156"
    name: "Squeeze_676"
    op_type: "Squeeze"
    attribute {
      name: "axes"
      ints: 1
      type: INTS
    }
  }
  node {
    input: "1156"
    output: "1157"
    name: "Cast_677"
    op_type: "Cast"
    attribute {
      name: "to"
      i: 7
      type: INT
    }
  }
  node {
    output: "1158"
    name: "Constant_678"
    op_type: "Constant"
    attribute {
      name: "value"
      t {
        dims: 4
        data_type: 7
      }
      type: TENSOR
    }
  }
  node {
    input: "1153"
    input: "1158"
    output: "1159"
    name: "Gather_679"
    op_type: "Gather"
    attribute {
      name: "axis"
      i: 1
      type: INT
    }
  }
  node {
    input: "1120"
    input: "1159"
    input: "1157"
    output: "1160"
    name: "RoiAlign_680"
    op_type: "RoiAlign"
    attribute {
      name: "output_height"
      i: 8
      type: INT
    }
    attribute {
      name: "output_width"
      i: 8
      type: INT
    }
    attribute {
      name: "sampling_ratio"
      i: 1
      type: INT
    }
    attribute {
      name: "spatial_scale"
      f: 1.0
      type: FLOAT
    }
  }
  node {
    input: "1083"
    input: "1160"
    output: "1161"
    name: "Concat_681"
    op_type: "Concat"
    attribute {
      name: "axis"
      i: 1
      type: INT
    }
  }
  node {
    input: "1161"
    input: "1625"
    input: "1626"
    output: "1624"
    name: "Conv_682"
    op_type: "Conv"
    attribute {
      name: "dilations"
      ints: 1
      ints: 1
      type: INTS
    }
    attribute {
      name: "group"
      i: 1
      type: INT
    }
    attribute {
      name: "kernel_shape"
      ints: 3
      ints: 3
      type: INTS
    }
    attribute {
      name: "pads"
      ints: 0
      ints: 0
      ints: 0
      ints: 0
      type: INTS
    }
    attribute {
      name: "strides"
      ints: 1
      ints: 1
      type: INTS
    }
  }
  node {
    input: "1624"
    output: "1164"
    name: "Relu_683"
    op_type: "Relu"
  }
  node {
    input: "1164"
    input: "1628"
    input: "1629"
    output: "1627"
    name: "Conv_684"
    op_type: "Conv"
    attribute {
      name: "dilations"
      ints: 1
      ints: 1
      type: INTS
    }
    attribute {
      name: "group"
      i: 1
      type: INT
    }
    attribute {
      name: "kernel_shape"
      ints: 3
      ints: 3
      type: INTS
    }
    attribute {
      name: "pads"
      ints: 0
      ints: 0
      ints: 0
      ints: 0
      type: INTS
    }
    attribute {
      name: "strides"
      ints: 1
      ints: 1
      type: INTS
    }
  }
  node {
    input: "1627"
    output: "1167"
    name: "Relu_685"
    op_type: "Relu"
  }
  node {
    input: "1167"
    output: "1169"
    name: "Shape_686"
    op_type: "Shape"
  }
  node {
    output: "1170"
    name: "Constant_687"
    op_type: "Constant"
    attribute {
      name: "value"
      t {
        dims: 1
        data_type: 7
      }
      type: TENSOR
    }
  }
  node {
    output: "1171"
    name: "Constant_688"
    op_type: "Constant"
    attribute {
      name: "value"
      t {
        dims: 1
        data_type: 7
      }
      type: TENSOR
    }
  }
  node {
    output: "1172"
    name: "Constant_689"
    op_type: "Constant"
    attribute {
      name: "value"
      t {
        dims: 1
        data_type: 7
      }
      type: TENSOR
    }
  }
  node {
    input: "1169"
    input: "1171"
    input: "1172"
    input: "1170"
    output: "1173"
    name: "Slice_690"
    op_type: "Slice"
  }
  node {
    input: "1173"
    input: "1651"
    output: "1175"
    name: "Concat_691"
    op_type: "Concat"
    attribute {
      name: "axis"
      i: 0
      type: INT
    }
  }
  node {
    output: "1176"
    name: "Constant_692"
    op_type: "Constant"
    attribute {
      name: "value"
      t {
        dims: 0
        data_type: 1
      }
      type: TENSOR
    }
  }
  node {
    output: "1177"
    name: "Constant_693"
    op_type: "Constant"
    attribute {
      name: "value"
      t {
        dims: 0
        data_type: 1
      }
      type: TENSOR
    }
  }
  node {
    input: "1167"
    input: "1176"
    input: "1177"
    input: "1175"
    output: "1178"
    name: "Resize_694"
    op_type: "Resize"
    attribute {
      name: "coordinate_transformation_mode"
      s: "asymmetric"
      type: STRING
    }
    attribute {
      name: "cubic_coeff_a"
      f: -0.75
      type: FLOAT
    }
    attribute {
      name: "mode"
      s: "nearest"
      type: STRING
    }
    attribute {
      name: "nearest_mode"
      s: "floor"
      type: STRING
    }
  }
  node {
    input: "1655"
    output: "1188"
    name: "ConstantOfShape_695"
    op_type: "ConstantOfShape"
    attribute {
      name: "value"
      t {
        dims: 1
        data_type: 7
        raw_data: "\000\000\000\000\000\000\000\000"
      }
      type: TENSOR
    }
  }
  node {
    input: "1656"
    input: "1188"
    output: "1189"
    name: "Concat_696"
    op_type: "Concat"
    attribute {
      name: "axis"
      i: 0
      type: INT
    }
  }
  node {
    output: "1190"
    name: "Constant_697"
    op_type: "Constant"
    attribute {
      name: "value"
      t {
        dims: 2
        data_type: 7
      }
      type: TENSOR
    }
  }
  node {
    input: "1189"
    input: "1190"
    output: "1191"
    name: "Reshape_698"
    op_type: "Reshape"
  }
  node {
    output: "1192"
    name: "Constant_699"
    op_type: "Constant"
    attribute {
      name: "value"
      t {
        dims: 1
        data_type: 7
      }
      type: TENSOR
    }
  }
  node {
    output: "1193"
    name: "Constant_700"
    op_type: "Constant"
    attribute {
      name: "value"
      t {
        dims: 1
        data_type: 7
      }
      type: TENSOR
    }
  }
  node {
    output: "1194"
    name: "Constant_701"
    op_type: "Constant"
    attribute {
      name: "value"
      t {
        dims: 1
        data_type: 7
      }
      type: TENSOR
    }
  }
  node {
    output: "1195"
    name: "Constant_702"
    op_type: "Constant"
    attribute {
      name: "value"
      t {
        dims: 1
        data_type: 7
      }
      type: TENSOR
    }
  }
  node {
    input: "1191"
    input: "1193"
    input: "1194"
    input: "1192"
    input: "1195"
    output: "1196"
    name: "Slice_703"
    op_type: "Slice"
  }
  node {
    input: "1196"
    output: "1197"
    name: "Transpose_704"
    op_type: "Transpose"
    attribute {
      name: "perm"
      ints: 1
      ints: 0
      type: INTS
    }
  }
  node {
    output: "1198"
    name: "Constant_705"
    op_type: "Constant"
    attribute {
      name: "value"
      t {
        dims: 1
        data_type: 7
      }
      type: TENSOR
    }
  }
  node {
    input: "1197"
    input: "1198"
    output: "1199"
    name: "Reshape_706"
    op_type: "Reshape"
  }
  node {
    input: "1199"
    output: "1200"
    name: "Cast_707"
    op_type: "Cast"
    attribute {
      name: "to"
      i: 7
      type: INT
    }
  }
  node {
    output: "1201"
    name: "Constant_708"
    op_type: "Constant"
    attribute {
      name: "value"
      t {
        data_type: 1
      }
      type: TENSOR
    }
  }
  node {
    input: "939"
    input: "1200"
    input: "1201"
    output: "1202"
    name: "Pad_709"
    op_type: "Pad"
    attribute {
      name: "mode"
      s: "constant"
      type: STRING
    }
  }
  node {
    input: "1001"
    output: "1203"
    name: "Cast_710"
    op_type: "Cast"
    attribute {
      name: "to"
      i: 1
      type: INT
    }
  }
  node {
    input: "1003"
    output: "1204"
    name: "Cast_711"
    op_type: "Cast"
    attribute {
      name: "to"
      i: 1
      type: INT
    }
  }
  node {
    input: "1005"
    output: "1205"
    name: "Cast_712"
    op_type: "Cast"
    attribute {
      name: "to"
      i: 1
      type: INT
    }
  }
  node {
    output: "1206"
    name: "Constant_713"
    op_type: "Constant"
    attribute {
      name: "value"
      t {
        data_type: 1
      }
      type: TENSOR
    }
  }
  node {
    input: "1205"
    input: "1206"
    output: "1207"
    name: "Mul_714"
    op_type: "Mul"
  }
  node {
    output: "1208"
    name: "Constant_715"
    op_type: "Constant"
    attribute {
      name: "value"
      t {
        data_type: 1
      }
      type: TENSOR
    }
  }
  node {
    input: "1207"
    input: "1208"
    output: "1209"
    name: "Sub_716"
    op_type: "Sub"
  }
  node {
    output: "1210"
    name: "Constant_717"
    op_type: "Constant"
    attribute {
      name: "value"
      t {
        data_type: 1
      }
      type: TENSOR
    }
  }
  node {
    input: "1204"
    input: "1210"
    output: "1211"
    name: "Mul_718"
    op_type: "Mul"
  }
  node {
    output: "1212"
    name: "Constant_719"
    op_type: "Constant"
    attribute {
      name: "value"
      t {
        data_type: 1
      }
      type: TENSOR
    }
  }
  node {
    input: "1211"
    input: "1212"
    output: "1213"
    name: "Sub_720"
    op_type: "Sub"
  }
  node {
    output: "1214"
    name: "Constant_721"
    op_type: "Constant"
    attribute {
      name: "value"
      t {
        data_type: 1
      }
      type: TENSOR
    }
  }
  node {
    input: "1205"
    input: "1214"
    output: "1215"
    name: "Mul_722"
    op_type: "Mul"
  }
  node {
    output: "1216"
    name: "Constant_723"
    op_type: "Constant"
    attribute {
      name: "value"
      t {
        data_type: 1
      }
      type: TENSOR
    }
  }
  node {
    input: "1215"
    input: "1216"
    output: "1217"
    name: "Add_724"
    op_type: "Add"
  }
  node {
    output: "1218"
    name: "Constant_725"
    op_type: "Constant"
    attribute {
      name: "value"
      t {
        data_type: 1
      }
      type: TENSOR
    }
  }
  node {
    input: "1217"
    input: "1218"
    output: "1219"
    name: "Add_726"
    op_type: "Add"
  }
  node {
    output: "1220"
    name: "Constant_727"
    op_type: "Constant"
    attribute {
      name: "value"
      t {
        data_type: 1
      }
      type: TENSOR
    }
  }
  node {
    input: "1219"
    input: "1220"
    output: "1221"
    name: "Sub_728"
    op_type: "Sub"
  }
  node {
    output: "1222"
    name: "Constant_729"
    op_type: "Constant"
    attribute {
      name: "value"
      t {
        data_type: 1
      }
      type: TENSOR
    }
  }
  node {
    input: "1204"
    input: "1222"
    output: "1223"
    name: "Mul_730"
    op_type: "Mul"
  }
  node {
    output: "1224"
    name: "Constant_731"
    op_type: "Constant"
    attribute {
      name: "value"
      t {
        data_type: 1
      }
      type: TENSOR
    }
  }
  node {
    input: "1223"
    input: "1224"
    output: "1225"
    name: "Add_732"
    op_type: "Add"
  }
  node {
    output: "1226"
    name: "Constant_733"
    op_type: "Constant"
    attribute {
      name: "value"
      t {
        data_type: 1
      }
      type: TENSOR
    }
  }
  node {
    input: "1225"
    input: "1226"
    output: "1227"
    name: "Add_734"
    op_type: "Add"
  }
  node {
    output: "1228"
    name: "Constant_735"
    op_type: "Constant"
    attribute {
      name: "value"
      t {
        data_type: 1
      }
      type: TENSOR
    }
  }
  node {
    input: "1227"
    input: "1228"
    output: "1229"
    name: "Sub_736"
    op_type: "Sub"
  }
  node {
    input: "1203"
    output: "1230"
    name: "Unsqueeze_737"
    op_type: "Unsqueeze"
    attribute {
      name: "axes"
      ints: 1
      type: INTS
    }
  }
  node {
    input: "1209"
    output: "1231"
    name: "Unsqueeze_738"
    op_type: "Unsqueeze"
    attribute {
      name: "axes"
      ints: 1
      type: INTS
    }
  }
  node {
    input: "1213"
    output: "1232"
    name: "Unsqueeze_739"
    op_type: "Unsqueeze"
    attribute {
      name: "axes"
      ints: 1
      type: INTS
    }
  }
  node {
    input: "1221"
    output: "1233"
    name: "Unsqueeze_740"
    op_type: "Unsqueeze"
    attribute {
      name: "axes"
      ints: 1
      type: INTS
    }
  }
  node {
    input: "1229"
    output: "1234"
    name: "Unsqueeze_741"
    op_type: "Unsqueeze"
    attribute {
      name: "axes"
      ints: 1
      type: INTS
    }
  }
  node {
    input: "1230"
    input: "1231"
    input: "1232"
    input: "1233"
    input: "1234"
    output: "1235"
    name: "Concat_742"
    op_type: "Concat"
    attribute {
      name: "axis"
      i: 1
      type: INT
    }
  }
  node {
    output: "1236"
    name: "Constant_743"
    op_type: "Constant"
    attribute {
      name: "value"
      t {
        dims: 1
        data_type: 7
      }
      type: TENSOR
    }
  }
  node {
    input: "1235"
    input: "1236"
    output: "1237"
    name: "Gather_744"
    op_type: "Gather"
    attribute {
      name: "axis"
      i: 1
      type: INT
    }
  }
  node {
    input: "1237"
    output: "1238"
    name: "Squeeze_745"
    op_type: "Squeeze"
    attribute {
      name: "axes"
      ints: 1
      type: INTS
    }
  }
  node {
    input: "1238"
    output: "1239"
    name: "Cast_746"
    op_type: "Cast"
    attribute {
      name: "to"
      i: 7
      type: INT
    }
  }
  node {
    output: "1240"
    name: "Constant_747"
    op_type: "Constant"
    attribute {
      name: "value"
      t {
        dims: 4
        data_type: 7
      }
      type: TENSOR
    }
  }
  node {
    input: "1235"
    input: "1240"
    output: "1241"
    name: "Gather_748"
    op_type: "Gather"
    attribute {
      name: "axis"
      i: 1
      type: INT
    }
  }
  node {
    input: "1202"
    input: "1241"
    input: "1239"
    output: "1242"
    name: "RoiAlign_749"
    op_type: "RoiAlign"
    attribute {
      name: "output_height"
      i: 8
      type: INT
    }
    attribute {
      name: "output_width"
      i: 8
      type: INT
    }
    attribute {
      name: "sampling_ratio"
      i: 1
      type: INT
    }
    attribute {
      name: "spatial_scale"
      f: 1.0
      type: FLOAT
    }
  }
  node {
    input: "1178"
    input: "1242"
    output: "1243"
    name: "Concat_750"
    op_type: "Concat"
    attribute {
      name: "axis"
      i: 1
      type: INT
    }
  }
  node {
    input: "1243"
    input: "1631"
    input: "1632"
    output: "1630"
    name: "Conv_751"
    op_type: "Conv"
    attribute {
      name: "dilations"
      ints: 1
      ints: 1
      type: INTS
    }
    attribute {
      name: "group"
      i: 1
      type: INT
    }
    attribute {
      name: "kernel_shape"
      ints: 3
      ints: 3
      type: INTS
    }
    attribute {
      name: "pads"
      ints: 0
      ints: 0
      ints: 0
      ints: 0
      type: INTS
    }
    attribute {
      name: "strides"
      ints: 1
      ints: 1
      type: INTS
    }
  }
  node {
    input: "1630"
    output: "1246"
    name: "Relu_752"
    op_type: "Relu"
  }
  node {
    input: "1246"
    input: "refiner.conv4.weight"
    input: "refiner.conv4.bias"
    output: "1247"
    name: "Conv_753"
    op_type: "Conv"
    attribute {
      name: "dilations"
      ints: 1
      ints: 1
      type: INTS
    }
    attribute {
      name: "group"
      i: 1
      type: INT
    }
    attribute {
      name: "kernel_shape"
      ints: 3
      ints: 3
      type: INTS
    }
    attribute {
      name: "pads"
      ints: 0
      ints: 0
      ints: 0
      ints: 0
      type: INTS
    }
    attribute {
      name: "strides"
      ints: 1
      ints: 1
      type: INTS
    }
  }
  node {
    input: "pha_sm"
    input: "850"
    output: "1248"
    name: "Concat_754"
    op_type: "Concat"
    attribute {
      name: "axis"
      i: 1
      type: INT
    }
  }
  node {
    input: "919"
    output: "1249"
    name: "Unsqueeze_755"
    op_type: "Unsqueeze"
    attribute {
      name: "axes"
      ints: 0
      type: INTS
    }
  }
  node {
    input: "922"
    output: "1250"
    name: "Unsqueeze_756"
    op_type: "Unsqueeze"
    attribute {
      name: "axes"
      ints: 0
      type: INTS
    }
  }
  node {
    input: "1249"
    input: "1250"
    output: "1251"
    name: "Concat_757"
    op_type: "Concat"
    attribute {
      name: "axis"
      i: 0
      type: INT
    }
  }
  node {
    input: "1248"
    output: "1252"
    name: "Shape_758"
    op_type: "Shape"
  }
  node {
    output: "1253"
    name: "Constant_759"
    op_type: "Constant"
    attribute {
      name: "value"
      t {
        dims: 1
        data_type: 7
      }
      type: TENSOR
    }
  }
  node {
    output: "1254"
    name: "Constant_760"
    op_type: "Constant"
    attribute {
      name: "value"
      t {
        dims: 1
        data_type: 7
      }
      type: TENSOR
    }
  }
  node {
    output: "1255"
    name: "Constant_761"
    op_type: "Constant"
    attribute {
      name: "value"
      t {
        dims: 1
        data_type: 7
      }
      type: TENSOR
    }
  }
  node {
    input: "1252"
    input: "1254"
    input: "1255"
    input: "1253"
    output: "1256"
    name: "Slice_762"
    op_type: "Slice"
  }
  node {
    input: "1251"
    output: "1257"
    name: "Cast_763"
    op_type: "Cast"
    attribute {
      name: "to"
      i: 7
      type: INT
    }
  }
  node {
    input: "1256"
    input: "1257"
    output: "1258"
    name: "Concat_764"
    op_type: "Concat"
    attribute {
      name: "axis"
      i: 0
      type: INT
    }
  }
  node {
    output: "1259"
    name: "Constant_765"
    op_type: "Constant"
    attribute {
      name: "value"
      t {
        dims: 0
        data_type: 1
      }
      type: TENSOR
    }
  }
  node {
    output: "1260"
    name: "Constant_766"
    op_type: "Constant"
    attribute {
      name: "value"
      t {
        dims: 0
        data_type: 1
      }
      type: TENSOR
    }
  }
  node {
    input: "1248"
    input: "1259"
    input: "1260"
    input: "1258"
    output: "1261"
    name: "Resize_767"
    op_type: "Resize"
    attribute {
      name: "coordinate_transformation_mode"
      s: "pytorch_half_pixel"
      type: STRING
    }
    attribute {
      name: "cubic_coeff_a"
      f: -0.75
      type: FLOAT
    }
    attribute {
      name: "mode"
      s: "linear"
      type: STRING
    }
    attribute {
      name: "nearest_mode"
      s: "floor"
      type: STRING
    }
  }
  node {
    input: "1261"
    output: "1262"
    name: "Shape_768"
    op_type: "Shape"
  }
  node {
    output: "1263"
    name: "Constant_769"
    op_type: "Constant"
    attribute {
      name: "value"
      t {
        data_type: 7
      }
      type: TENSOR
    }
  }
  node {
    input: "1262"
    input: "1263"
    output: "1264"
    name: "Gather_770"
    op_type: "Gather"
    attribute {
      name: "axis"
      i: 0
      type: INT
    }
  }
  node {
    input: "1261"
    output: "1265"
    name: "Shape_771"
    op_type: "Shape"
  }
  node {
    output: "1266"
    name: "Constant_772"
    op_type: "Constant"
    attribute {
      name: "value"
      t {
        data_type: 7
      }
      type: TENSOR
    }
  }
  node {
    input: "1265"
    input: "1266"
    output: "1267"
    name: "Gather_773"
    op_type: "Gather"
    attribute {
      name: "axis"
      i: 0
      type: INT
    }
  }
  node {
    input: "1261"
    output: "1268"
    name: "Shape_774"
    op_type: "Shape"
  }
  node {
    output: "1269"
    name: "Constant_775"
    op_type: "Constant"
    attribute {
      name: "value"
      t {
        data_type: 7
      }
      type: TENSOR
    }
  }
  node {
    input: "1268"
    input: "1269"
    output: "1270"
    name: "Gather_776"
    op_type: "Gather"
    attribute {
      name: "axis"
      i: 0
      type: INT
    }
  }
  node {
    input: "1001"
    output: "1271"
    name: "Shape_777"
    op_type: "Shape"
  }
  node {
    output: "1272"
    name: "Constant_778"
    op_type: "Constant"
    attribute {
      name: "value"
      t {
        data_type: 7
      }
      type: TENSOR
    }
  }
  node {
    input: "1271"
    input: "1272"
    output: "1273"
    name: "Gather_779"
    op_type: "Gather"
    attribute {
      name: "axis"
      i: 0
      type: INT
    }
  }
  node {
    input: "1264"
    output: "1274"
    name: "Cast_780"
    op_type: "Cast"
    attribute {
      name: "to"
      i: 7
      type: INT
    }
  }
  node {
    output: "1275"
    name: "Constant_781"
    op_type: "Constant"
    attribute {
      name: "value"
      t {
        data_type: 7
      }
      type: TENSOR
    }
  }
  node {
    output: "1276"
    name: "Constant_782"
    op_type: "Constant"
    attribute {
      name: "value"
      t {
        data_type: 7
      }
      type: TENSOR
    }
  }
  node {
    input: "1275"
    input: "1274"
    input: "1276"
    output: "1277"
    name: "Range_783"
    op_type: "Range"
  }
  node {
    input: "1277"
    input: "1267"
    output: "1278"
    name: "Mul_784"
    op_type: "Mul"
  }
  node {
    input: "1278"
    input: "1270"
    output: "1279"
    name: "Mul_785"
    op_type: "Mul"
  }
  node {
    input: "1264"
    output: "1282"
    name: "Unsqueeze_786"
    op_type: "Unsqueeze"
    attribute {
      name: "axes"
      ints: 0
      type: INTS
    }
  }
  node {
    input: "1282"
    input: "1657"
    input: "1658"
    output: "1285"
    name: "Concat_787"
    op_type: "Concat"
    attribute {
      name: "axis"
      i: 0
      type: INT
    }
  }
  node {
    input: "1279"
    input: "1285"
    output: "1286"
    name: "Reshape_788"
    op_type: "Reshape"
  }
  node {
    input: "1264"
    output: "1289"
    name: "Unsqueeze_789"
    op_type: "Unsqueeze"
    attribute {
      name: "axes"
      ints: 0
      type: INTS
    }
  }
  node {
    input: "1289"
    input: "1659"
    input: "1660"
    output: "1292"
    name: "Concat_790"
    op_type: "Concat"
    attribute {
      name: "axis"
      i: 0
      type: INT
    }
  }
  node {
    output: "1293"
    name: "Constant_791"
    op_type: "Constant"
    attribute {
      name: "value"
      t {
        dims: 1
        data_type: 7
      }
      type: TENSOR
    }
  }
  node {
    input: "1292"
    input: "1293"
    output: "1294"
    name: "Reshape_792"
    op_type: "Reshape"
  }
  node {
    input: "1294"
    output: "1295"
    name: "Shape_793"
    op_type: "Shape"
  }
  node {
    input: "1295"
    output: "1296"
    name: "ConstantOfShape_794"
    op_type: "ConstantOfShape"
    attribute {
      name: "value"
      t {
        dims: 1
        data_type: 7
        raw_data: "\001\000\000\000\000\000\000\000"
      }
      type: TENSOR
    }
  }
  node {
    output: "1297"
    name: "Constant_795"
    op_type: "Constant"
    attribute {
      name: "value"
      t {
        data_type: 7
      }
      type: TENSOR
    }
  }
  node {
    input: "1296"
    input: "1297"
    output: "1298"
    name: "Mul_796"
    op_type: "Mul"
  }
  node {
    input: "1294"
    input: "1298"
    output: "1299"
    name: "Equal_797"
    op_type: "Equal"
  }
  node {
    input: "1299"
    input: "1296"
    input: "1294"
    output: "1300"
    name: "Where_798"
    op_type: "Where"
  }
  node {
    input: "1286"
    input: "1300"
    output: "1301"
    name: "Expand_799"
    op_type: "Expand"
  }
  node {
    output: "1302"
    name: "Constant_800"
    op_type: "Constant"
    attribute {
      name: "value"
      t {
        dims: 4
        data_type: 7
      }
      type: TENSOR
    }
  }
  node {
    input: "1302"
    input: "1270"
    output: "1303"
    name: "Mul_801"
    op_type: "Mul"
  }
  node {
    output: "1304"
    name: "Constant_802"
    op_type: "Constant"
    attribute {
      name: "value"
      t {
        dims: 3
        data_type: 7
      }
      type: TENSOR
    }
  }
  node {
    input: "1303"
    input: "1304"
    output: "1305"
    name: "Reshape_803"
    op_type: "Reshape"
  }
  node {
    input: "1264"
    output: "1308"
    name: "Unsqueeze_804"
    op_type: "Unsqueeze"
    attribute {
      name: "axes"
      ints: 0
      type: INTS
    }
  }
  node {
    input: "1308"
    input: "1661"
    input: "1662"
    output: "1311"
    name: "Concat_805"
    op_type: "Concat"
    attribute {
      name: "axis"
      i: 0
      type: INT
    }
  }
  node {
    output: "1312"
    name: "Constant_806"
    op_type: "Constant"
    attribute {
      name: "value"
      t {
        dims: 1
        data_type: 7
      }
      type: TENSOR
    }
  }
  node {
    input: "1311"
    input: "1312"
    output: "1313"
    name: "Reshape_807"
    op_type: "Reshape"
  }
  node {
    input: "1313"
    output: "1314"
    name: "Shape_808"
    op_type: "Shape"
  }
  node {
    input: "1314"
    output: "1315"
    name: "ConstantOfShape_809"
    op_type: "ConstantOfShape"
    attribute {
      name: "value"
      t {
        dims: 1
        data_type: 7
        raw_data: "\001\000\000\000\000\000\000\000"
      }
      type: TENSOR
    }
  }
  node {
    output: "1316"
    name: "Constant_810"
    op_type: "Constant"
    attribute {
      name: "value"
      t {
        data_type: 7
      }
      type: TENSOR
    }
  }
  node {
    input: "1315"
    input: "1316"
    output: "1317"
    name: "Mul_811"
    op_type: "Mul"
  }
  node {
    input: "1313"
    input: "1317"
    output: "1318"
    name: "Equal_812"
    op_type: "Equal"
  }
  node {
    input: "1318"
    input: "1315"
    input: "1313"
    output: "1319"
    name: "Where_813"
    op_type: "Where"
  }
  node {
    input: "1305"
    input: "1319"
    output: "1320"
    name: "Expand_814"
    op_type: "Expand"
  }
  node {
    input: "1301"
    input: "1320"
    output: "1321"
    name: "Add_815"
    op_type: "Add"
  }
  node {
    output: "1322"
    name: "Constant_816"
    op_type: "Constant"
    attribute {
      name: "value"
      t {
        dims: 1
        dims: 1
        dims: 4
        data_type: 7
      }
      type: TENSOR
    }
  }
  node {
    input: "1264"
    output: "1325"
    name: "Unsqueeze_817"
    op_type: "Unsqueeze"
    attribute {
      name: "axes"
      ints: 0
      type: INTS
    }
  }
  node {
    input: "1325"
    input: "1663"
    input: "1664"
    output: "1328"
    name: "Concat_818"
    op_type: "Concat"
    attribute {
      name: "axis"
      i: 0
      type: INT
    }
  }
  node {
    output: "1329"
    name: "Constant_819"
    op_type: "Constant"
    attribute {
      name: "value"
      t {
        dims: 1
        data_type: 7
      }
      type: TENSOR
    }
  }
  node {
    input: "1328"
    input: "1329"
    output: "1330"
    name: "Reshape_820"
    op_type: "Reshape"
  }
  node {
    input: "1330"
    output: "1331"
    name: "Shape_821"
    op_type: "Shape"
  }
  node {
    input: "1331"
    output: "1332"
    name: "ConstantOfShape_822"
    op_type: "ConstantOfShape"
    attribute {
      name: "value"
      t {
        dims: 1
        data_type: 7
        raw_data: "\001\000\000\000\000\000\000\000"
      }
      type: TENSOR
    }
  }
  node {
    output: "1333"
    name: "Constant_823"
    op_type: "Constant"
    attribute {
      name: "value"
      t {
        data_type: 7
      }
      type: TENSOR
    }
  }
  node {
    input: "1332"
    input: "1333"
    output: "1334"
    name: "Mul_824"
    op_type: "Mul"
  }
  node {
    input: "1330"
    input: "1334"
    output: "1335"
    name: "Equal_825"
    op_type: "Equal"
  }
  node {
    input: "1335"
    input: "1332"
    input: "1330"
    output: "1336"
    name: "Where_826"
    op_type: "Where"
  }
  node {
    input: "1322"
    input: "1336"
    output: "1337"
    name: "Expand_827"
    op_type: "Expand"
  }
  node {
    input: "1321"
    input: "1337"
    output: "1338"
    name: "Add_828"
    op_type: "Add"
  }
  node {
    input: "1001"
    input: "1270"
    output: "1339"
    name: "Mul_829"
    op_type: "Mul"
  }
  node {
    input: "1339"
    input: "1267"
    output: "1340"
    name: "Mul_830"
    op_type: "Mul"
  }
  node {
    input: "1003"
    input: "1270"
    output: "1341"
    name: "Mul_831"
    op_type: "Mul"
  }
  node {
    output: "1342"
    name: "Constant_832"
    op_type: "Constant"
    attribute {
      name: "value"
      t {
        data_type: 7
      }
      type: TENSOR
    }
  }
  node {
    input: "1341"
    input: "1342"
    output: "1343"
    name: "Mul_833"
    op_type: "Mul"
  }
  node {
    input: "1340"
    input: "1343"
    output: "1344"
    name: "Add_834"
    op_type: "Add"
  }
  node {
    output: "1345"
    name: "Constant_835"
    op_type: "Constant"
    attribute {
      name: "value"
      t {
        data_type: 7
      }
      type: TENSOR
    }
  }
  node {
    input: "1005"
    input: "1345"
    output: "1346"
    name: "Mul_836"
    op_type: "Mul"
  }
  node {
    input: "1344"
    input: "1346"
    output: "1347"
    name: "Add_837"
    op_type: "Add"
  }
  node {
    output: "1348"
    name: "Constant_838"
    op_type: "Constant"
    attribute {
      name: "value"
      t {
        dims: 4
        data_type: 7
      }
      type: TENSOR
    }
  }
  node {
    input: "1347"
    input: "1348"
    output: "1349"
    name: "Reshape_839"
    op_type: "Reshape"
  }
  node {
    input: "1273"
    output: "1352"
    name: "Unsqueeze_840"
    op_type: "Unsqueeze"
    attribute {
      name: "axes"
      ints: 0
      type: INTS
    }
  }
  node {
    input: "1264"
    output: "1353"
    name: "Unsqueeze_841"
    op_type: "Unsqueeze"
    attribute {
      name: "axes"
      ints: 0
      type: INTS
    }
  }
  node {
    input: "1352"
    input: "1353"
    input: "1665"
    input: "1666"
    output: "1356"
    name: "Concat_842"
    op_type: "Concat"
    attribute {
      name: "axis"
      i: 0
      type: INT
    }
  }
  node {
    output: "1357"
    name: "Constant_843"
    op_type: "Constant"
    attribute {
      name: "value"
      t {
        dims: 1
        data_type: 7
      }
      type: TENSOR
    }
  }
  node {
    input: "1356"
    input: "1357"
    output: "1358"
    name: "Reshape_844"
    op_type: "Reshape"
  }
  node {
    input: "1358"
    output: "1359"
    name: "Shape_845"
    op_type: "Shape"
  }
  node {
    input: "1359"
    output: "1360"
    name: "ConstantOfShape_846"
    op_type: "ConstantOfShape"
    attribute {
      name: "value"
      t {
        dims: 1
        data_type: 7
        raw_data: "\001\000\000\000\000\000\000\000"
      }
      type: TENSOR
    }
  }
  node {
    output: "1361"
    name: "Constant_847"
    op_type: "Constant"
    attribute {
      name: "value"
      t {
        data_type: 7
      }
      type: TENSOR
    }
  }
  node {
    input: "1360"
    input: "1361"
    output: "1362"
    name: "Mul_848"
    op_type: "Mul"
  }
  node {
    input: "1358"
    input: "1362"
    output: "1363"
    name: "Equal_849"
    op_type: "Equal"
  }
  node {
    input: "1363"
    input: "1360"
    input: "1358"
    output: "1364"
    name: "Where_850"
    op_type: "Where"
  }
  node {
    input: "1349"
    input: "1364"
    output: "1365"
    name: "Expand_851"
    op_type: "Expand"
  }
  node {
    input: "1264"
    output: "1370"
    name: "Unsqueeze_852"
    op_type: "Unsqueeze"
    attribute {
      name: "axes"
      ints: 0
      type: INTS
    }
  }
  node {
    input: "1667"
    input: "1370"
    input: "1668"
    input: "1669"
    output: "1373"
    name: "Concat_853"
    op_type: "Concat"
    attribute {
      name: "axis"
      i: 0
      type: INT
    }
  }
  node {
    input: "1338"
    input: "1373"
    output: "1374"
    name: "Reshape_854"
    op_type: "Reshape"
  }
  node {
    input: "1273"
    output: "1377"
    name: "Unsqueeze_855"
    op_type: "Unsqueeze"
    attribute {
      name: "axes"
      ints: 0
      type: INTS
    }
  }
  node {
    input: "1264"
    output: "1378"
    name: "Unsqueeze_856"
    op_type: "Unsqueeze"
    attribute {
      name: "axes"
      ints: 0
      type: INTS
    }
  }
  node {
    input: "1377"
    input: "1378"
    input: "1670"
    input: "1671"
    output: "1381"
    name: "Concat_857"
    op_type: "Concat"
    attribute {
      name: "axis"
      i: 0
      type: INT
    }
  }
  node {
    output: "1382"
    name: "Constant_858"
    op_type: "Constant"
    attribute {
      name: "value"
      t {
        dims: 1
        data_type: 7
      }
      type: TENSOR
    }
  }
  node {
    input: "1381"
    input: "1382"
    output: "1383"
    name: "Reshape_859"
    op_type: "Reshape"
  }
  node {
    input: "1383"
    output: "1384"
    name: "Shape_860"
    op_type: "Shape"
  }
  node {
    input: "1384"
    output: "1385"
    name: "ConstantOfShape_861"
    op_type: "ConstantOfShape"
    attribute {
      name: "value"
      t {
        dims: 1
        data_type: 7
        raw_data: "\001\000\000\000\000\000\000\000"
      }
      type: TENSOR
    }
  }
  node {
    output: "1386"
    name: "Constant_862"
    op_type: "Constant"
    attribute {
      name: "value"
      t {
        data_type: 7
      }
      type: TENSOR
    }
  }
  node {
    input: "1385"
    input: "1386"
    output: "1387"
    name: "Mul_863"
    op_type: "Mul"
  }
  node {
    input: "1383"
    input: "1387"
    output: "1388"
    name: "Equal_864"
    op_type: "Equal"
  }
  node {
    input: "1388"
    input: "1385"
    input: "1383"
    output: "1389"
    name: "Where_865"
    op_type: "Where"
  }
  node {
    input: "1374"
    input: "1389"
    output: "1390"
    name: "Expand_866"
    op_type: "Expand"
  }
  node {
    input: "1365"
    input: "1390"
    output: "1391"
    name: "Add_867"
    op_type: "Add"
  }
  node {
    output: "1392"
    name: "Constant_868"
    op_type: "Constant"
    attribute {
      name: "value"
      t {
        dims: 1
        data_type: 7
      }
      type: TENSOR
    }
  }
  node {
    input: "1261"
    input: "1392"
    output: "1393"
    name: "Reshape_869"
    op_type: "Reshape"
  }
  node {
    output: "1394"
    name: "Constant_870"
    op_type: "Constant"
    attribute {
      name: "value"
      t {
        dims: 1
        data_type: 7
      }
      type: TENSOR
    }
  }
  node {
    input: "1391"
    input: "1394"
    output: "1395"
    name: "Reshape_871"
    op_type: "Reshape"
  }
  node {
    output: "1396"
    name: "Constant_872"
    op_type: "Constant"
    attribute {
      name: "value"
      t {
        dims: 1
        data_type: 7
      }
      type: TENSOR
    }
  }
  node {
    input: "1247"
    input: "1396"
    output: "1397"
    name: "Reshape_873"
    op_type: "Reshape"
  }
  node {
    input: "1393"
    input: "1395"
    input: "1397"
    output: "1398"
    name: "ScatterElements_874"
    op_type: "ScatterElements"
    attribute {
      name: "axis"
      i: 0
      type: INT
    }
  }
  node {
    input: "1261"
    output: "1399"
    name: "Shape_875"
    op_type: "Shape"
  }
  node {
    output: "1400"
    name: "Constant_876"
    op_type: "Constant"
    attribute {
      name: "value"
      t {
        data_type: 7
      }
      type: TENSOR
    }
  }
  node {
    input: "1399"
    input: "1400"
    output: "1401"
    name: "Gather_877"
    op_type: "Gather"
    attribute {
      name: "axis"
      i: 0
      type: INT
    }
  }
  node {
    input: "1261"
    output: "1402"
    name: "Shape_878"
    op_type: "Shape"
  }
  node {
    output: "1403"
    name: "Constant_879"
    op_type: "Constant"
    attribute {
      name: "value"
      t {
        data_type: 7
      }
      type: TENSOR
    }
  }
  node {
    input: "1402"
    input: "1403"
    output: "1404"
    name: "Gather_880"
    op_type: "Gather"
    attribute {
      name: "axis"
      i: 0
      type: INT
    }
  }
  node {
    input: "1261"
    output: "1405"
    name: "Shape_881"
    op_type: "Shape"
  }
  node {
    output: "1406"
    name: "Constant_882"
    op_type: "Constant"
    attribute {
      name: "value"
      t {
        data_type: 7
      }
      type: TENSOR
    }
  }
  node {
    input: "1405"
    input: "1406"
    output: "1407"
    name: "Gather_883"
    op_type: "Gather"
    attribute {
      name: "axis"
      i: 0
      type: INT
    }
  }
  node {
    input: "1261"
    output: "1408"
    name: "Shape_884"
    op_type: "Shape"
  }
  node {
    output: "1409"
    name: "Constant_885"
    op_type: "Constant"
    attribute {
      name: "value"
      t {
        data_type: 7
      }
      type: TENSOR
    }
  }
  node {
    input: "1408"
    input: "1409"
    output: "1410"
    name: "Gather_886"
    op_type: "Gather"
    attribute {
      name: "axis"
      i: 0
      type: INT
    }
  }
  node {
    input: "1401"
    output: "1411"
    name: "Unsqueeze_887"
    op_type: "Unsqueeze"
    attribute {
      name: "axes"
      ints: 0
      type: INTS
    }
  }
  node {
    input: "1404"
    output: "1412"
    name: "Unsqueeze_888"
    op_type: "Unsqueeze"
    attribute {
      name: "axes"
      ints: 0
      type: INTS
    }
  }
  node {
    input: "1407"
    output: "1413"
    name: "Unsqueeze_889"
    op_type: "Unsqueeze"
    attribute {
      name: "axes"
      ints: 0
      type: INTS
    }
  }
  node {
    input: "1410"
    output: "1414"
    name: "Unsqueeze_890"
    op_type: "Unsqueeze"
    attribute {
      name: "axes"
      ints: 0
      type: INTS
    }
  }
  node {
    input: "1411"
    input: "1412"
    input: "1413"
    input: "1414"
    output: "1415"
    name: "Concat_891"
    op_type: "Concat"
    attribute {
      name: "axis"
      i: 0
      type: INT
    }
  }
  node {
    input: "1398"
    input: "1415"
    output: "1416"
    name: "Reshape_892"
    op_type: "Reshape"
  }
  node {
    output: "1417"
    name: "Constant_893"
    op_type: "Constant"
    attribute {
      name: "value"
      t {
        dims: 1
        data_type: 7
      }
      type: TENSOR
    }
  }
  node {
    output: "1418"
    name: "Constant_894"
    op_type: "Constant"
    attribute {
      name: "value"
      t {
        dims: 1
        data_type: 7
      }
      type: TENSOR
    }
  }
  node {
    output: "1419"
    name: "Constant_895"
    op_type: "Constant"
    attribute {
      name: "value"
      t {
        dims: 1
        data_type: 7
      }
      type: TENSOR
    }
  }
  node {
    output: "1420"
    name: "Constant_896"
    op_type: "Constant"
    attribute {
      name: "value"
      t {
        dims: 1
        data_type: 7
      }
      type: TENSOR
    }
  }
  node {
    input: "1416"
    input: "1418"
    input: "1419"
    input: "1417"
    input: "1420"
    output: "1421"
    name: "Slice_897"
    op_type: "Slice"
  }
  node {
    output: "1422"
    name: "Constant_898"
    op_type: "Constant"
    attribute {
      name: "value"
      t {
        dims: 1
        data_type: 7
      }
      type: TENSOR
    }
  }
  node {
    output: "1423"
    name: "Constant_899"
    op_type: "Constant"
    attribute {
      name: "value"
      t {
        dims: 1
        data_type: 7
      }
      type: TENSOR
    }
  }
  node {
    output: "1424"
    name: "Constant_900"
    op_type: "Constant"
    attribute {
      name: "value"
      t {
        dims: 1
        data_type: 7
      }
      type: TENSOR
    }
  }
  node {
    output: "1425"
    name: "Constant_901"
    op_type: "Constant"
    attribute {
      name: "value"
      t {
        dims: 1
        data_type: 7
      }
      type: TENSOR
    }
  }
  node {
    input: "1416"
    input: "1423"
    input: "1424"
    input: "1422"
    input: "1425"
    output: "1426"
    name: "Slice_902"
    op_type: "Slice"
  }
  node {
    input: "1421"
    input: "1672"
    input: "1673"
    output: "pha"
    name: "Clip_903"
    op_type: "Clip"
  }
  node {
    input: "1426"
    input: "src"
    output: "1432"
    name: "Add_904"
    op_type: "Add"
  }
  node {
    input: "1432"
    input: "1674"
    input: "1675"
    output: "fgr"
    name: "Clip_905"
    op_type: "Clip"
  }
  node {
    input: "412"
    input: "850"
    output: "1438"
    name: "Add_906"
    op_type: "Add"
  }
  node {
    input: "1438"
    input: "1676"
    input: "1677"
    output: "fgr_sm"
    name: "Clip_907"
    op_type: "Clip"
  }
  initializer {
      dims: 37
      dims: 54
      dims: 3
      dims: 3
      data_type: 1
      name: "decoder.conv4.weight"
  }
  initializer {
      dims: 37
      data_type: 1
      name: "decoder.conv4.bias"
  }
  initializer {
      dims: 4
      dims: 12
      dims: 3
      dims: 3
      data_type: 1
      name: "refiner.conv4.weight"
  }
  initializer {
      dims: 4
      data_type: 1
      name: "refiner.conv4.bias"
  }
  initializer {
      dims: 32
      dims: 6
      dims: 3
      dims: 3
      data_type: 1
      name: "1445"
  }
  initializer {
      dims: 32
      data_type: 1
      name: "1446"
  }
  initializer {
      dims: 32
      dims: 1
      dims: 3
      dims: 3
      data_type: 1
      name: "1448"
  }
  initializer {
      dims: 32
      data_type: 1
      name: "1449"
  }
  initializer {
      dims: 16
      dims: 32
      dims: 1
      dims: 1
      data_type: 1
      name: "1451"
  }
  initializer {
      dims: 16
      data_type: 1
      name: "1452"
  }
  initializer {
      dims: 96
      dims: 16
      dims: 1
      dims: 1
      data_type: 1
      name: "1454"
  }
  initializer {
      dims: 96
      data_type: 1
      name: "1455"
  }
  initializer {
      dims: 96
      dims: 1
      dims: 3
      dims: 3
      data_type: 1
      name: "1457"
  }
  initializer {
      dims: 96
      data_type: 1
      name: "1458"
  }
  initializer {
      dims: 24
      dims: 96
      dims: 1
      dims: 1
      data_type: 1
      name: "1460"
  }
  initializer {
      dims: 24
      data_type: 1
      name: "1461"
  }
  initializer {
      dims: 144
      dims: 24
      dims: 1
      dims: 1
      data_type: 1
      name: "1463"
  }
  initializer {
      dims: 144
      data_type: 1
      name: "1464"
  }
  initializer {
      dims: 144
      dims: 1
      dims: 3
      dims: 3
      data_type: 1
      name: "1466"
  }
  initializer {
      dims: 144
      data_type: 1
      name: "1467"
  }
  initializer {
      dims: 24
      dims: 144
      dims: 1
      dims: 1
      data_type: 1
      name: "1469"
  }
  initializer {
      dims: 24
      data_type: 1
      name: "1470"
  }
  initializer {
      dims: 144
      dims: 24
      dims: 1
      dims: 1
      data_type: 1
      name: "1472"
  }
  initializer {
      dims: 144
      data_type: 1
      name: "1473"
  }
  initializer {
      dims: 144
      dims: 1
      dims: 3
      dims: 3
      data_type: 1
      name: "1475"
  }
  initializer {
      dims: 144
      data_type: 1
      name: "1476"
  }
  initializer {
      dims: 32
      dims: 144
      dims: 1
      dims: 1
      data_type: 1
      name: "1478"
  }
  initializer {
      dims: 32
      data_type: 1
      name: "1479"
  }
  initializer {
      dims: 192
      dims: 32
      dims: 1
      dims: 1
      data_type: 1
      name: "1481"
  }
  initializer {
      dims: 192
      data_type: 1
      name: "1482"
  }
  initializer {
      dims: 192
      dims: 1
      dims: 3
      dims: 3
      data_type: 1
      name: "1484"
  }
  initializer {
      dims: 192
      data_type: 1
      name: "1485"
  }
  initializer {
      dims: 32
      dims: 192
      dims: 1
      dims: 1
      data_type: 1
      name: "1487"
  }
  initializer {
      dims: 32
      data_type: 1
      name: "1488"
  }
  initializer {
      dims: 192
      dims: 32
      dims: 1
      dims: 1
      data_type: 1
      name: "1490"
  }
  initializer {
      dims: 192
      data_type: 1
      name: "1491"
  }
  initializer {
      dims: 192
      dims: 1
      dims: 3
      dims: 3
      data_type: 1
      name: "1493"
  }
  initializer {
      dims: 192
      data_type: 1
      name: "1494"
  }
  initializer {
      dims: 32
      dims: 192
      dims: 1
      dims: 1
      data_type: 1
      name: "1496"
  }
  initializer {
      dims: 32
      data_type: 1
      name: "1497"
  }
  initializer {
      dims: 192
      dims: 32
      dims: 1
      dims: 1
      data_type: 1
      name: "1499"
  }
  initializer {
      dims: 192
      data_type: 1
      name: "1500"
  }
  initializer {
      dims: 192
      dims: 1
      dims: 3
      dims: 3
      data_type: 1
      name: "1502"
  }
  initializer {
      dims: 192
      data_type: 1
      name: "1503"
  }
  initializer {
      dims: 64
      dims: 192
      dims: 1
      dims: 1
      data_type: 1
      name: "1505"
  }
  initializer {
      dims: 64
      data_type: 1
      name: "1506"
  }
  initializer {
      dims: 384
      dims: 64
      dims: 1
      dims: 1
      data_type: 1
      name: "1508"
  }
  initializer {
      dims: 384
      data_type: 1
      name: "1509"
  }
  initializer {
      dims: 384
      dims: 1
      dims: 3
      dims: 3
      data_type: 1
      name: "1511"
  }
  initializer {
      dims: 384
      data_type: 1
      name: "1512"
  }
  initializer {
      dims: 64
      dims: 384
      dims: 1
      dims: 1
      data_type: 1
      name: "1514"
  }
  initializer {
      dims: 64
      data_type: 1
      name: "1515"
  }
  initializer {
      dims: 384
      dims: 64
      dims: 1
      dims: 1
      data_type: 1
      name: "1517"
  }
  initializer {
      dims: 384
      data_type: 1
      name: "1518"
  }
  initializer {
      dims: 384
      dims: 1
      dims: 3
      dims: 3
      data_type: 1
      name: "1520"
  }
  initializer {
      dims: 384
      data_type: 1
      name: "1521"
  }
  initializer {
      dims: 64
      dims: 384
      dims: 1
      dims: 1
      data_type: 1
      name: "1523"
  }
  initializer {
      dims: 64
      data_type: 1
      name: "1524"
  }
  initializer {
      dims: 384
      dims: 64
      dims: 1
      dims: 1
      data_type: 1
      name: "1526"
  }
  initializer {
      dims: 384
      data_type: 1
      name: "1527"
  }
  initializer {
      dims: 384
      dims: 1
      dims: 3
      dims: 3
      data_type: 1
      name: "1529"
  }
  initializer {
      dims: 384
      data_type: 1
      name: "1530"
  }
  initializer {
      dims: 64
      dims: 384
      dims: 1
      dims: 1
      data_type: 1
      name: "1532"
  }
  initializer {
      dims: 64
      data_type: 1
      name: "1533"
  }
  initializer {
      dims: 384
      dims: 64
      dims: 1
      dims: 1
      data_type: 1
      name: "1535"
  }
  initializer {
      dims: 384
      data_type: 1
      name: "1536"
  }
  initializer {
      dims: 384
      dims: 1
      dims: 3
      dims: 3
      data_type: 1
      name: "1538"
  }
  initializer {
      dims: 384
      data_type: 1
      name: "1539"
  }
  initializer {
      dims: 96
      dims: 384
      dims: 1
      dims: 1
      data_type: 1
      name: "1541"
  }
  initializer {
      dims: 96
      data_type: 1
      name: "1542"
  }
  initializer {
      dims: 576
      dims: 96
      dims: 1
      dims: 1
      data_type: 1
      name: "1544"
  }
  initializer {
      dims: 576
      data_type: 1
      name: "1545"
  }
  initializer {
      dims: 576
      dims: 1
      dims: 3
      dims: 3
      data_type: 1
      name: "1547"
  }
  initializer {
      dims: 576
      data_type: 1
      name: "1548"
  }
  initializer {
      dims: 96
      dims: 576
      dims: 1
      dims: 1
      data_type: 1
      name: "1550"
  }
  initializer {
      dims: 96
      data_type: 1
      name: "1551"
  }
  initializer {
      dims: 576
      dims: 96
      dims: 1
      dims: 1
      data_type: 1
      name: "1553"
  }
  initializer {
      dims: 576
      data_type: 1
      name: "1554"
  }
  initializer {
      dims: 576
      dims: 1
      dims: 3
      dims: 3
      data_type: 1
      name: "1556"
  }
  initializer {
      dims: 576
      data_type: 1
      name: "1557"
  }
  initializer {
      dims: 96
      dims: 576
      dims: 1
      dims: 1
      data_type: 1
      name: "1559"
  }
  initializer {
      dims: 96
      data_type: 1
      name: "1560"
  }
  initializer {
      dims: 576
      dims: 96
      dims: 1
      dims: 1
      data_type: 1
      name: "1562"
  }
  initializer {
      dims: 576
      data_type: 1
      name: "1563"
  }
  initializer {
      dims: 576
      dims: 1
      dims: 3
      dims: 3
      data_type: 1
      name: "1565"
  }
  initializer {
      dims: 576
      data_type: 1
      name: "1566"
  }
  initializer {
      dims: 160
      dims: 576
      dims: 1
      dims: 1
      data_type: 1
      name: "1568"
  }
  initializer {
      dims: 160
      data_type: 1
      name: "1569"
  }
  initializer {
      dims: 960
      dims: 160
      dims: 1
      dims: 1
      data_type: 1
      name: "1571"
  }
  initializer {
      dims: 960
      data_type: 1
      name: "1572"
  }
  initializer {
      dims: 960
      dims: 1
      dims: 3
      dims: 3
      data_type: 1
      name: "1574"
  }
  initializer {
      dims: 960
      data_type: 1
      name: "1575"
  }
  initializer {
      dims: 160
      dims: 960
      dims: 1
      dims: 1
      data_type: 1
      name: "1577"
  }
  initializer {
      dims: 160
      data_type: 1
      name: "1578"
  }
  initializer {
      dims: 960
      dims: 160
      dims: 1
      dims: 1
      data_type: 1
      name: "1580"
  }
  initializer {
      dims: 960
      data_type: 1
      name: "1581"
  }
  initializer {
      dims: 960
      dims: 1
      dims: 3
      dims: 3
      data_type: 1
      name: "1583"
  }
  initializer {
      dims: 960
      data_type: 1
      name: "1584"
  }
  initializer {
      dims: 160
      dims: 960
      dims: 1
      dims: 1
      data_type: 1
      name: "1586"
  }
  initializer {
      dims: 160
      data_type: 1
      name: "1587"
  }
  initializer {
      dims: 960
      dims: 160
      dims: 1
      dims: 1
      data_type: 1
      name: "1589"
  }
  initializer {
      dims: 960
      data_type: 1
      name: "1590"
  }
  initializer {
      dims: 960
      dims: 1
      dims: 3
      dims: 3
      data_type: 1
      name: "1592"
  }
  initializer {
      dims: 960
      data_type: 1
      name: "1593"
  }
  initializer {
      dims: 320
      dims: 960
      dims: 1
      dims: 1
      data_type: 1
      name: "1595"
  }
  initializer {
      dims: 320
      data_type: 1
      name: "1596"
  }
  initializer {
      dims: 256
      dims: 320
      dims: 1
      dims: 1
      data_type: 1
      name: "1598"
  }
  initializer {
      dims: 256
      data_type: 1
      name: "1599"
  }
  initializer {
      dims: 256
      dims: 320
      dims: 3
      dims: 3
      data_type: 1
      name: "1601"
  }
  initializer {
      dims: 256
      data_type: 1
      name: "1602"
  }
  initializer {
      dims: 256
      dims: 320
      dims: 3
      dims: 3
      data_type: 1
      name: "1604"
  }
  initializer {
      dims: 256
      data_type: 1
      name: "1605"
  }
  initializer {
      dims: 256
      dims: 320
      dims: 3
      dims: 3
      data_type: 1
      name: "1607"
  }
  initializer {
      dims: 256
      data_type: 1
      name: "1608"
  }
  initializer {
      dims: 256
      dims: 320
      dims: 1
      dims: 1
      data_type: 1
      name: "1610"
  }
  initializer {
      dims: 256
      data_type: 1
      name: "1611"
  }
  initializer {
      dims: 256
      dims: 1280
      dims: 1
      dims: 1
      data_type: 1
      name: "1613"
  }
  initializer {
      dims: 256
      data_type: 1
      name: "1614"
  }
  initializer {
      dims: 128
      dims: 288
      dims: 3
      dims: 3
      data_type: 1
      name: "1616"
  }
  initializer {
      dims: 128
      data_type: 1
      name: "1617"
  }
  initializer {
      dims: 64
      dims: 152
      dims: 3
      dims: 3
      data_type: 1
      name: "1619"
  }
  initializer {
      dims: 64
      data_type: 1
      name: "1620"
  }
  initializer {
      dims: 48
      dims: 80
      dims: 3
      dims: 3
      data_type: 1
      name: "1622"
  }
  initializer {
      dims: 48
      data_type: 1
      name: "1623"
  }
  initializer {
      dims: 24
      dims: 42
      dims: 3
      dims: 3
      data_type: 1
      name: "1625"
  }
  initializer {
      dims: 24
      data_type: 1
      name: "1626"
  }
  initializer {
      dims: 16
      dims: 24
      dims: 3
      dims: 3
      data_type: 1
      name: "1628"
  }
  initializer {
      dims: 16
      data_type: 1
      name: "1629"
  }
  initializer {
      dims: 12
      dims: 22
      dims: 3
      dims: 3
      data_type: 1
      name: "1631"
  }
  initializer {
      dims: 12
      data_type: 1
      name: "1632"
  }
  initializer {
      data_type: 1
      name: "1633"
  }
  initializer {
      data_type: 1
      name: "1634"
  }
  initializer {
      data_type: 1
      name: "1635"
  }
  initializer {
      data_type: 1
      name: "1636"
  }
  initializer {
      dims: 1
      data_type: 7
      name: "1637"
  }
  initializer {
      dims: 1
      data_type: 7
      name: "1638"
  }
  initializer {
      data_type: 1
      name: "1639"
  }
  initializer {
      dims: 1
      data_type: 7
      name: "1640"
  }
  initializer {
      dims: 1
      data_type: 7
      name: "1644"
  }
  initializer {
      dims: 4
      data_type: 7
      name: "1645"
  }
  initializer {
      dims: 1
      data_type: 7
      name: "1649"
  }
  initializer {
      dims: 4
      data_type: 7
      name: "1650"
  }
  initializer {
      dims: 2
      data_type: 7
      name: "1651"
  }
  initializer {
      dims: 1
      data_type: 7
      name: "1655"
  }
  initializer {
      dims: 4
      data_type: 7
      name: "1656"
  }
  initializer {
      dims: 1
      data_type: 7
      name: "1657"
  }
  initializer {
      dims: 1
      data_type: 7
      name: "1658"
  }
  initializer {
      dims: 1
      data_type: 7
      name: "1659"
  }
  initializer {
      dims: 1
      data_type: 7
      name: "1660"
  }
  initializer {
      dims: 1
      data_type: 7
      name: "1661"
  }
  initializer {
      dims: 1
      data_type: 7
      name: "1662"
  }
  initializer {
      dims: 1
      data_type: 7
      name: "1663"
  }
  initializer {
      dims: 1
      data_type: 7
      name: "1664"
  }
  initializer {
      dims: 1
      data_type: 7
      name: "1665"
  }
  initializer {
      dims: 1
      data_type: 7
      name: "1666"
  }
  initializer {
      dims: 1
      data_type: 7
      name: "1667"
  }
  initializer {
      dims: 1
      data_type: 7
      name: "1668"
  }
  initializer {
      dims: 1
      data_type: 7
      name: "1669"
  }
  initializer {
      dims: 1
      data_type: 7
      name: "1670"
  }
  initializer {
      dims: 1
      data_type: 7
      name: "1671"
  }
  initializer {
      data_type: 1
      name: "1672"
  }
  initializer {
      data_type: 1
      name: "1673"
  }
  initializer {
      data_type: 1
      name: "1674"
  }
  initializer {
      data_type: 1
      name: "1675"
  }
  initializer {
      data_type: 1
      name: "1676"
  }
  initializer {
      data_type: 1
      name: "1677"
  }
  input {
    name: "src"
    type {
      tensor_type {
        elem_type: 1
        shape {
          dim {
            dim_param: "batch"
          }
          dim {
            dim_value: 3
          }
          dim {
            dim_param: "height"
          }
          dim {
            dim_param: "width"
          }
        }
      }
    }
  }
  input {
    name: "bgr"
    type {
      tensor_type {
        elem_type: 1
        shape {
          dim {
            dim_param: "batch"
          }
          dim {
            dim_value: 3
          }
          dim {
            dim_param: "height"
          }
          dim {
            dim_param: "width"
          }
        }
      }
    }
  }
  output {
    name: "pha"
    type {
      tensor_type {
        elem_type: 1
        shape {
          dim {
            dim_param: "batch"
          }
          dim {
            dim_param: "Clippha_dim_1"
          }
          dim {
            dim_param: "height"
          }
          dim {
            dim_param: "width"
          }
        }
      }
    }
  }
  output {
    name: "fgr"
    type {
      tensor_type {
        elem_type: 1
        shape {
          dim {
            dim_param: "batch"
          }
          dim {
            dim_value: 3
          }
          dim {
            dim_param: "height"
          }
          dim {
            dim_param: "width"
          }
        }
      }
    }
  }
  output {
    name: "pha_sm"
    type {
      tensor_type {
        elem_type: 1
        shape {
          dim {
            dim_param: "batch"
          }
          dim {
            dim_value: 1
          }
          dim {
            dim_param: "height"
          }
          dim {
            dim_param: "width"
          }
        }
      }
    }
  }
  output {
    name: "fgr_sm"
    type {
      tensor_type {
        elem_type: 1
        shape {
          dim {
            dim_param: "batch"
          }
          dim {
            dim_value: 3
          }
          dim {
            dim_param: "height"
          }
          dim {
            dim_param: "width"
          }
        }
      }
    }
  }
  output {
    name: "err_sm"
    type {
      tensor_type {
        elem_type: 1
        shape {
          dim {
            dim_param: "batch"
          }
          dim {
            dim_value: 1
          }
          dim {
            dim_param: "height"
          }
          dim {
            dim_param: "width"
          }
        }
      }
    }
  }
  output {
    name: "ref_sm"
    type {
      tensor_type {
        elem_type: 1
        shape {
          dim {
            dim_param: "batch"
          }
          dim {
            dim_param: "Reshaperef_sm_dim_1"
          }
          dim {
            dim_param: "height"
          }
          dim {
            dim_param: "width"
          }
        }
      }
    }
  }
}
opset_import {
  version: 11
}
